{
  "nodes": [
    {
      "op": "null", 
      "name": "data", 
      "inputs": []
    }, 
    {
      "op": "null", 
      "name": "bn_data_gamma", 
      "attrs": {
        "eps": "2e-05", 
        "fix_gamma": "True", 
        "momentum": "0.9"
      }, 
      "inputs": []
    }, 
    {
      "op": "null", 
      "name": "bn_data_beta", 
      "attrs": {
        "eps": "2e-05", 
        "fix_gamma": "True", 
        "momentum": "0.9"
      }, 
      "inputs": []
    }, 
    {
      "op": "null", 
      "name": "bn_data_moving_mean", 
      "attrs": {
        "__init__": "[\"zero\", {}]", 
        "eps": "2e-05", 
        "fix_gamma": "True", 
        "momentum": "0.9"
      }, 
      "inputs": []
    }, 
    {
      "op": "null", 
      "name": "bn_data_moving_var", 
      "attrs": {
        "__init__": "[\"one\", {}]", 
        "eps": "2e-05", 
        "fix_gamma": "True", 
        "momentum": "0.9"
      }, 
      "inputs": []
    }, 
    {
      "op": "BatchNorm", 
      "name": "bn_data", 
      "attrs": {
        "eps": "2e-05", 
        "fix_gamma": "True", 
        "momentum": "0.9"
      }, 
      "inputs": [[0, 0, 0], [1, 0, 0], [2, 0, 0], [3, 0, 1], [4, 0, 1]]
    }, 
    {
      "op": "null", 
      "name": "conv0_weight", 
      "attrs": {
        "kernel": "(7, 7)", 
        "no_bias": "True", 
        "num_filter": "64", 
        "pad": "(3, 3)", 
        "stride": "(2, 2)", 
        "workspace": "512"
      }, 
      "inputs": []
    }, 
    {
      "op": "Convolution", 
      "name": "conv0", 
      "attrs": {
        "kernel": "(7, 7)", 
        "no_bias": "True", 
        "num_filter": "64", 
        "pad": "(3, 3)", 
        "stride": "(2, 2)", 
        "workspace": "512"
      }, 
      "inputs": [[5, 0, 0], [6, 0, 0]]
    }, 
    {
      "op": "null", 
      "name": "bn0_gamma", 
      "attrs": {
        "eps": "2e-05", 
        "fix_gamma": "False", 
        "momentum": "0.9"
      }, 
      "inputs": []
    }, 
    {
      "op": "null", 
      "name": "bn0_beta", 
      "attrs": {
        "eps": "2e-05", 
        "fix_gamma": "False", 
        "momentum": "0.9"
      }, 
      "inputs": []
    }, 
    {
      "op": "null", 
      "name": "bn0_moving_mean", 
      "attrs": {
        "__init__": "[\"zero\", {}]", 
        "eps": "2e-05", 
        "fix_gamma": "False", 
        "momentum": "0.9"
      }, 
      "inputs": []
    }, 
    {
      "op": "null", 
      "name": "bn0_moving_var", 
      "attrs": {
        "__init__": "[\"one\", {}]", 
        "eps": "2e-05", 
        "fix_gamma": "False", 
        "momentum": "0.9"
      }, 
      "inputs": []
    }, 
    {
      "op": "BatchNorm", 
      "name": "bn0", 
      "attrs": {
        "eps": "2e-05", 
        "fix_gamma": "False", 
        "momentum": "0.9"
      }, 
      "inputs": [[7, 0, 0], [8, 0, 0], [9, 0, 0], [10, 0, 1], [11, 0, 1]]
    }, 
    {
      "op": "Activation", 
      "name": "relu0", 
      "attrs": {"act_type": "relu"}, 
      "inputs": [[12, 0, 0]]
    }, 
    {
      "op": "Pooling", 
      "name": "pooling0", 
      "attrs": {
        "kernel": "(3, 3)", 
        "pad": "(1, 1)", 
        "pool_type": "max", 
        "stride": "(2, 2)"
      }, 
      "inputs": [[13, 0, 0]]
    }, 
    {
      "op": "null", 
      "name": "DBstage1_unit1_bn1_gamma", 
      "attrs": {
        "eps": "2e-05", 
        "fix_gamma": "False", 
        "momentum": "0.9"
      }, 
      "inputs": []
    }, 
    {
      "op": "null", 
      "name": "DBstage1_unit1_bn1_beta", 
      "attrs": {
        "eps": "2e-05", 
        "fix_gamma": "False", 
        "momentum": "0.9"
      }, 
      "inputs": []
    }, 
    {
      "op": "null", 
      "name": "DBstage1_unit1_bn1_moving_mean", 
      "attrs": {
        "__init__": "[\"zero\", {}]", 
        "eps": "2e-05", 
        "fix_gamma": "False", 
        "momentum": "0.9"
      }, 
      "inputs": []
    }, 
    {
      "op": "null", 
      "name": "DBstage1_unit1_bn1_moving_var", 
      "attrs": {
        "__init__": "[\"one\", {}]", 
        "eps": "2e-05", 
        "fix_gamma": "False", 
        "momentum": "0.9"
      }, 
      "inputs": []
    }, 
    {
      "op": "BatchNorm", 
      "name": "DBstage1_unit1_bn1", 
      "attrs": {
        "eps": "2e-05", 
        "fix_gamma": "False", 
        "momentum": "0.9"
      }, 
      "inputs": [[14, 0, 0], [15, 0, 0], [16, 0, 0], [17, 0, 1], [18, 0, 1]]
    }, 
    {
      "op": "Activation", 
      "name": "DBstage1_unit1_relu1", 
      "attrs": {"act_type": "relu"}, 
      "inputs": [[19, 0, 0]]
    }, 
    {
      "op": "null", 
      "name": "DBstage1_unit1_conv1_weight", 
      "attrs": {
        "kernel": "(1, 1)", 
        "no_bias": "True", 
        "num_filter": "128", 
        "pad": "(0, 0)", 
        "stride": "(1, 1)", 
        "workspace": "512"
      }, 
      "inputs": []
    }, 
    {
      "op": "Convolution", 
      "name": "DBstage1_unit1_conv1", 
      "attrs": {
        "kernel": "(1, 1)", 
        "no_bias": "True", 
        "num_filter": "128", 
        "pad": "(0, 0)", 
        "stride": "(1, 1)", 
        "workspace": "512"
      }, 
      "inputs": [[20, 0, 0], [21, 0, 0]]
    }, 
    {
      "op": "null", 
      "name": "DBstage1_unit1_bn2_gamma", 
      "attrs": {
        "eps": "2e-05", 
        "fix_gamma": "False", 
        "momentum": "0.9"
      }, 
      "inputs": []
    }, 
    {
      "op": "null", 
      "name": "DBstage1_unit1_bn2_beta", 
      "attrs": {
        "eps": "2e-05", 
        "fix_gamma": "False", 
        "momentum": "0.9"
      }, 
      "inputs": []
    }, 
    {
      "op": "null", 
      "name": "DBstage1_unit1_bn2_moving_mean", 
      "attrs": {
        "__init__": "[\"zero\", {}]", 
        "eps": "2e-05", 
        "fix_gamma": "False", 
        "momentum": "0.9"
      }, 
      "inputs": []
    }, 
    {
      "op": "null", 
      "name": "DBstage1_unit1_bn2_moving_var", 
      "attrs": {
        "__init__": "[\"one\", {}]", 
        "eps": "2e-05", 
        "fix_gamma": "False", 
        "momentum": "0.9"
      }, 
      "inputs": []
    }, 
    {
      "op": "BatchNorm", 
      "name": "DBstage1_unit1_bn2", 
      "attrs": {
        "eps": "2e-05", 
        "fix_gamma": "False", 
        "momentum": "0.9"
      }, 
      "inputs": [[22, 0, 0], [23, 0, 0], [24, 0, 0], [25, 0, 1], [26, 0, 1]]
    }, 
    {
      "op": "Activation", 
      "name": "DBstage1_unit1_relu2", 
      "attrs": {"act_type": "relu"}, 
      "inputs": [[27, 0, 0]]
    }, 
    {
      "op": "null", 
      "name": "DBstage1_unit1_conv2_weight", 
      "attrs": {
        "kernel": "(3, 3)", 
        "no_bias": "True", 
        "num_filter": "32", 
        "pad": "(1, 1)", 
        "stride": "(1, 1)", 
        "workspace": "512"
      }, 
      "inputs": []
    }, 
    {
      "op": "Convolution", 
      "name": "DBstage1_unit1_conv2", 
      "attrs": {
        "kernel": "(3, 3)", 
        "no_bias": "True", 
        "num_filter": "32", 
        "pad": "(1, 1)", 
        "stride": "(1, 1)", 
        "workspace": "512"
      }, 
      "inputs": [[28, 0, 0], [29, 0, 0]]
    }, 
    {
      "op": "Concat", 
      "name": "DBstage1_concat1", 
      "attrs": {"num_args": "2"}, 
      "inputs": [[14, 0, 0], [30, 0, 0]]
    }, 
    {
      "op": "null", 
      "name": "DBstage1_unit2_bn1_gamma", 
      "attrs": {
        "eps": "2e-05", 
        "fix_gamma": "False", 
        "momentum": "0.9"
      }, 
      "inputs": []
    }, 
    {
      "op": "null", 
      "name": "DBstage1_unit2_bn1_beta", 
      "attrs": {
        "eps": "2e-05", 
        "fix_gamma": "False", 
        "momentum": "0.9"
      }, 
      "inputs": []
    }, 
    {
      "op": "null", 
      "name": "DBstage1_unit2_bn1_moving_mean", 
      "attrs": {
        "__init__": "[\"zero\", {}]", 
        "eps": "2e-05", 
        "fix_gamma": "False", 
        "momentum": "0.9"
      }, 
      "inputs": []
    }, 
    {
      "op": "null", 
      "name": "DBstage1_unit2_bn1_moving_var", 
      "attrs": {
        "__init__": "[\"one\", {}]", 
        "eps": "2e-05", 
        "fix_gamma": "False", 
        "momentum": "0.9"
      }, 
      "inputs": []
    }, 
    {
      "op": "BatchNorm", 
      "name": "DBstage1_unit2_bn1", 
      "attrs": {
        "eps": "2e-05", 
        "fix_gamma": "False", 
        "momentum": "0.9"
      }, 
      "inputs": [[31, 0, 0], [32, 0, 0], [33, 0, 0], [34, 0, 1], [35, 0, 1]]
    }, 
    {
      "op": "Activation", 
      "name": "DBstage1_unit2_relu1", 
      "attrs": {"act_type": "relu"}, 
      "inputs": [[36, 0, 0]]
    }, 
    {
      "op": "null", 
      "name": "DBstage1_unit2_conv1_weight", 
      "attrs": {
        "kernel": "(1, 1)", 
        "no_bias": "True", 
        "num_filter": "128", 
        "pad": "(0, 0)", 
        "stride": "(1, 1)", 
        "workspace": "512"
      }, 
      "inputs": []
    }, 
    {
      "op": "Convolution", 
      "name": "DBstage1_unit2_conv1", 
      "attrs": {
        "kernel": "(1, 1)", 
        "no_bias": "True", 
        "num_filter": "128", 
        "pad": "(0, 0)", 
        "stride": "(1, 1)", 
        "workspace": "512"
      }, 
      "inputs": [[37, 0, 0], [38, 0, 0]]
    }, 
    {
      "op": "null", 
      "name": "DBstage1_unit2_bn2_gamma", 
      "attrs": {
        "eps": "2e-05", 
        "fix_gamma": "False", 
        "momentum": "0.9"
      }, 
      "inputs": []
    }, 
    {
      "op": "null", 
      "name": "DBstage1_unit2_bn2_beta", 
      "attrs": {
        "eps": "2e-05", 
        "fix_gamma": "False", 
        "momentum": "0.9"
      }, 
      "inputs": []
    }, 
    {
      "op": "null", 
      "name": "DBstage1_unit2_bn2_moving_mean", 
      "attrs": {
        "__init__": "[\"zero\", {}]", 
        "eps": "2e-05", 
        "fix_gamma": "False", 
        "momentum": "0.9"
      }, 
      "inputs": []
    }, 
    {
      "op": "null", 
      "name": "DBstage1_unit2_bn2_moving_var", 
      "attrs": {
        "__init__": "[\"one\", {}]", 
        "eps": "2e-05", 
        "fix_gamma": "False", 
        "momentum": "0.9"
      }, 
      "inputs": []
    }, 
    {
      "op": "BatchNorm", 
      "name": "DBstage1_unit2_bn2", 
      "attrs": {
        "eps": "2e-05", 
        "fix_gamma": "False", 
        "momentum": "0.9"
      }, 
      "inputs": [[39, 0, 0], [40, 0, 0], [41, 0, 0], [42, 0, 1], [43, 0, 1]]
    }, 
    {
      "op": "Activation", 
      "name": "DBstage1_unit2_relu2", 
      "attrs": {"act_type": "relu"}, 
      "inputs": [[44, 0, 0]]
    }, 
    {
      "op": "null", 
      "name": "DBstage1_unit2_conv2_weight", 
      "attrs": {
        "kernel": "(3, 3)", 
        "no_bias": "True", 
        "num_filter": "32", 
        "pad": "(1, 1)", 
        "stride": "(1, 1)", 
        "workspace": "512"
      }, 
      "inputs": []
    }, 
    {
      "op": "Convolution", 
      "name": "DBstage1_unit2_conv2", 
      "attrs": {
        "kernel": "(3, 3)", 
        "no_bias": "True", 
        "num_filter": "32", 
        "pad": "(1, 1)", 
        "stride": "(1, 1)", 
        "workspace": "512"
      }, 
      "inputs": [[45, 0, 0], [46, 0, 0]]
    }, 
    {
      "op": "Concat", 
      "name": "DBstage1_concat2", 
      "attrs": {"num_args": "2"}, 
      "inputs": [[31, 0, 0], [47, 0, 0]]
    }, 
    {
      "op": "null", 
      "name": "DBstage1_unit3_bn1_gamma", 
      "attrs": {
        "eps": "2e-05", 
        "fix_gamma": "False", 
        "momentum": "0.9"
      }, 
      "inputs": []
    }, 
    {
      "op": "null", 
      "name": "DBstage1_unit3_bn1_beta", 
      "attrs": {
        "eps": "2e-05", 
        "fix_gamma": "False", 
        "momentum": "0.9"
      }, 
      "inputs": []
    }, 
    {
      "op": "null", 
      "name": "DBstage1_unit3_bn1_moving_mean", 
      "attrs": {
        "__init__": "[\"zero\", {}]", 
        "eps": "2e-05", 
        "fix_gamma": "False", 
        "momentum": "0.9"
      }, 
      "inputs": []
    }, 
    {
      "op": "null", 
      "name": "DBstage1_unit3_bn1_moving_var", 
      "attrs": {
        "__init__": "[\"one\", {}]", 
        "eps": "2e-05", 
        "fix_gamma": "False", 
        "momentum": "0.9"
      }, 
      "inputs": []
    }, 
    {
      "op": "BatchNorm", 
      "name": "DBstage1_unit3_bn1", 
      "attrs": {
        "eps": "2e-05", 
        "fix_gamma": "False", 
        "momentum": "0.9"
      }, 
      "inputs": [[48, 0, 0], [49, 0, 0], [50, 0, 0], [51, 0, 1], [52, 0, 1]]
    }, 
    {
      "op": "Activation", 
      "name": "DBstage1_unit3_relu1", 
      "attrs": {"act_type": "relu"}, 
      "inputs": [[53, 0, 0]]
    }, 
    {
      "op": "null", 
      "name": "DBstage1_unit3_conv1_weight", 
      "attrs": {
        "kernel": "(1, 1)", 
        "no_bias": "True", 
        "num_filter": "128", 
        "pad": "(0, 0)", 
        "stride": "(1, 1)", 
        "workspace": "512"
      }, 
      "inputs": []
    }, 
    {
      "op": "Convolution", 
      "name": "DBstage1_unit3_conv1", 
      "attrs": {
        "kernel": "(1, 1)", 
        "no_bias": "True", 
        "num_filter": "128", 
        "pad": "(0, 0)", 
        "stride": "(1, 1)", 
        "workspace": "512"
      }, 
      "inputs": [[54, 0, 0], [55, 0, 0]]
    }, 
    {
      "op": "null", 
      "name": "DBstage1_unit3_bn2_gamma", 
      "attrs": {
        "eps": "2e-05", 
        "fix_gamma": "False", 
        "momentum": "0.9"
      }, 
      "inputs": []
    }, 
    {
      "op": "null", 
      "name": "DBstage1_unit3_bn2_beta", 
      "attrs": {
        "eps": "2e-05", 
        "fix_gamma": "False", 
        "momentum": "0.9"
      }, 
      "inputs": []
    }, 
    {
      "op": "null", 
      "name": "DBstage1_unit3_bn2_moving_mean", 
      "attrs": {
        "__init__": "[\"zero\", {}]", 
        "eps": "2e-05", 
        "fix_gamma": "False", 
        "momentum": "0.9"
      }, 
      "inputs": []
    }, 
    {
      "op": "null", 
      "name": "DBstage1_unit3_bn2_moving_var", 
      "attrs": {
        "__init__": "[\"one\", {}]", 
        "eps": "2e-05", 
        "fix_gamma": "False", 
        "momentum": "0.9"
      }, 
      "inputs": []
    }, 
    {
      "op": "BatchNorm", 
      "name": "DBstage1_unit3_bn2", 
      "attrs": {
        "eps": "2e-05", 
        "fix_gamma": "False", 
        "momentum": "0.9"
      }, 
      "inputs": [[56, 0, 0], [57, 0, 0], [58, 0, 0], [59, 0, 1], [60, 0, 1]]
    }, 
    {
      "op": "Activation", 
      "name": "DBstage1_unit3_relu2", 
      "attrs": {"act_type": "relu"}, 
      "inputs": [[61, 0, 0]]
    }, 
    {
      "op": "null", 
      "name": "DBstage1_unit3_conv2_weight", 
      "attrs": {
        "kernel": "(3, 3)", 
        "no_bias": "True", 
        "num_filter": "32", 
        "pad": "(1, 1)", 
        "stride": "(1, 1)", 
        "workspace": "512"
      }, 
      "inputs": []
    }, 
    {
      "op": "Convolution", 
      "name": "DBstage1_unit3_conv2", 
      "attrs": {
        "kernel": "(3, 3)", 
        "no_bias": "True", 
        "num_filter": "32", 
        "pad": "(1, 1)", 
        "stride": "(1, 1)", 
        "workspace": "512"
      }, 
      "inputs": [[62, 0, 0], [63, 0, 0]]
    }, 
    {
      "op": "Concat", 
      "name": "DBstage1_concat3", 
      "attrs": {"num_args": "2"}, 
      "inputs": [[48, 0, 0], [64, 0, 0]]
    }, 
    {
      "op": "null", 
      "name": "DBstage1_unit4_bn1_gamma", 
      "attrs": {
        "eps": "2e-05", 
        "fix_gamma": "False", 
        "momentum": "0.9"
      }, 
      "inputs": []
    }, 
    {
      "op": "null", 
      "name": "DBstage1_unit4_bn1_beta", 
      "attrs": {
        "eps": "2e-05", 
        "fix_gamma": "False", 
        "momentum": "0.9"
      }, 
      "inputs": []
    }, 
    {
      "op": "null", 
      "name": "DBstage1_unit4_bn1_moving_mean", 
      "attrs": {
        "__init__": "[\"zero\", {}]", 
        "eps": "2e-05", 
        "fix_gamma": "False", 
        "momentum": "0.9"
      }, 
      "inputs": []
    }, 
    {
      "op": "null", 
      "name": "DBstage1_unit4_bn1_moving_var", 
      "attrs": {
        "__init__": "[\"one\", {}]", 
        "eps": "2e-05", 
        "fix_gamma": "False", 
        "momentum": "0.9"
      }, 
      "inputs": []
    }, 
    {
      "op": "BatchNorm", 
      "name": "DBstage1_unit4_bn1", 
      "attrs": {
        "eps": "2e-05", 
        "fix_gamma": "False", 
        "momentum": "0.9"
      }, 
      "inputs": [[65, 0, 0], [66, 0, 0], [67, 0, 0], [68, 0, 1], [69, 0, 1]]
    }, 
    {
      "op": "Activation", 
      "name": "DBstage1_unit4_relu1", 
      "attrs": {"act_type": "relu"}, 
      "inputs": [[70, 0, 0]]
    }, 
    {
      "op": "null", 
      "name": "DBstage1_unit4_conv1_weight", 
      "attrs": {
        "kernel": "(1, 1)", 
        "no_bias": "True", 
        "num_filter": "128", 
        "pad": "(0, 0)", 
        "stride": "(1, 1)", 
        "workspace": "512"
      }, 
      "inputs": []
    }, 
    {
      "op": "Convolution", 
      "name": "DBstage1_unit4_conv1", 
      "attrs": {
        "kernel": "(1, 1)", 
        "no_bias": "True", 
        "num_filter": "128", 
        "pad": "(0, 0)", 
        "stride": "(1, 1)", 
        "workspace": "512"
      }, 
      "inputs": [[71, 0, 0], [72, 0, 0]]
    }, 
    {
      "op": "null", 
      "name": "DBstage1_unit4_bn2_gamma", 
      "attrs": {
        "eps": "2e-05", 
        "fix_gamma": "False", 
        "momentum": "0.9"
      }, 
      "inputs": []
    }, 
    {
      "op": "null", 
      "name": "DBstage1_unit4_bn2_beta", 
      "attrs": {
        "eps": "2e-05", 
        "fix_gamma": "False", 
        "momentum": "0.9"
      }, 
      "inputs": []
    }, 
    {
      "op": "null", 
      "name": "DBstage1_unit4_bn2_moving_mean", 
      "attrs": {
        "__init__": "[\"zero\", {}]", 
        "eps": "2e-05", 
        "fix_gamma": "False", 
        "momentum": "0.9"
      }, 
      "inputs": []
    }, 
    {
      "op": "null", 
      "name": "DBstage1_unit4_bn2_moving_var", 
      "attrs": {
        "__init__": "[\"one\", {}]", 
        "eps": "2e-05", 
        "fix_gamma": "False", 
        "momentum": "0.9"
      }, 
      "inputs": []
    }, 
    {
      "op": "BatchNorm", 
      "name": "DBstage1_unit4_bn2", 
      "attrs": {
        "eps": "2e-05", 
        "fix_gamma": "False", 
        "momentum": "0.9"
      }, 
      "inputs": [[73, 0, 0], [74, 0, 0], [75, 0, 0], [76, 0, 1], [77, 0, 1]]
    }, 
    {
      "op": "Activation", 
      "name": "DBstage1_unit4_relu2", 
      "attrs": {"act_type": "relu"}, 
      "inputs": [[78, 0, 0]]
    }, 
    {
      "op": "null", 
      "name": "DBstage1_unit4_conv2_weight", 
      "attrs": {
        "kernel": "(3, 3)", 
        "no_bias": "True", 
        "num_filter": "32", 
        "pad": "(1, 1)", 
        "stride": "(1, 1)", 
        "workspace": "512"
      }, 
      "inputs": []
    }, 
    {
      "op": "Convolution", 
      "name": "DBstage1_unit4_conv2", 
      "attrs": {
        "kernel": "(3, 3)", 
        "no_bias": "True", 
        "num_filter": "32", 
        "pad": "(1, 1)", 
        "stride": "(1, 1)", 
        "workspace": "512"
      }, 
      "inputs": [[79, 0, 0], [80, 0, 0]]
    }, 
    {
      "op": "Concat", 
      "name": "DBstage1_concat4", 
      "attrs": {"num_args": "2"}, 
      "inputs": [[65, 0, 0], [81, 0, 0]]
    }, 
    {
      "op": "null", 
      "name": "DBstage1_unit5_bn1_gamma", 
      "attrs": {
        "eps": "2e-05", 
        "fix_gamma": "False", 
        "momentum": "0.9"
      }, 
      "inputs": []
    }, 
    {
      "op": "null", 
      "name": "DBstage1_unit5_bn1_beta", 
      "attrs": {
        "eps": "2e-05", 
        "fix_gamma": "False", 
        "momentum": "0.9"
      }, 
      "inputs": []
    }, 
    {
      "op": "null", 
      "name": "DBstage1_unit5_bn1_moving_mean", 
      "attrs": {
        "__init__": "[\"zero\", {}]", 
        "eps": "2e-05", 
        "fix_gamma": "False", 
        "momentum": "0.9"
      }, 
      "inputs": []
    }, 
    {
      "op": "null", 
      "name": "DBstage1_unit5_bn1_moving_var", 
      "attrs": {
        "__init__": "[\"one\", {}]", 
        "eps": "2e-05", 
        "fix_gamma": "False", 
        "momentum": "0.9"
      }, 
      "inputs": []
    }, 
    {
      "op": "BatchNorm", 
      "name": "DBstage1_unit5_bn1", 
      "attrs": {
        "eps": "2e-05", 
        "fix_gamma": "False", 
        "momentum": "0.9"
      }, 
      "inputs": [[82, 0, 0], [83, 0, 0], [84, 0, 0], [85, 0, 1], [86, 0, 1]]
    }, 
    {
      "op": "Activation", 
      "name": "DBstage1_unit5_relu1", 
      "attrs": {"act_type": "relu"}, 
      "inputs": [[87, 0, 0]]
    }, 
    {
      "op": "null", 
      "name": "DBstage1_unit5_conv1_weight", 
      "attrs": {
        "kernel": "(1, 1)", 
        "no_bias": "True", 
        "num_filter": "128", 
        "pad": "(0, 0)", 
        "stride": "(1, 1)", 
        "workspace": "512"
      }, 
      "inputs": []
    }, 
    {
      "op": "Convolution", 
      "name": "DBstage1_unit5_conv1", 
      "attrs": {
        "kernel": "(1, 1)", 
        "no_bias": "True", 
        "num_filter": "128", 
        "pad": "(0, 0)", 
        "stride": "(1, 1)", 
        "workspace": "512"
      }, 
      "inputs": [[88, 0, 0], [89, 0, 0]]
    }, 
    {
      "op": "null", 
      "name": "DBstage1_unit5_bn2_gamma", 
      "attrs": {
        "eps": "2e-05", 
        "fix_gamma": "False", 
        "momentum": "0.9"
      }, 
      "inputs": []
    }, 
    {
      "op": "null", 
      "name": "DBstage1_unit5_bn2_beta", 
      "attrs": {
        "eps": "2e-05", 
        "fix_gamma": "False", 
        "momentum": "0.9"
      }, 
      "inputs": []
    }, 
    {
      "op": "null", 
      "name": "DBstage1_unit5_bn2_moving_mean", 
      "attrs": {
        "__init__": "[\"zero\", {}]", 
        "eps": "2e-05", 
        "fix_gamma": "False", 
        "momentum": "0.9"
      }, 
      "inputs": []
    }, 
    {
      "op": "null", 
      "name": "DBstage1_unit5_bn2_moving_var", 
      "attrs": {
        "__init__": "[\"one\", {}]", 
        "eps": "2e-05", 
        "fix_gamma": "False", 
        "momentum": "0.9"
      }, 
      "inputs": []
    }, 
    {
      "op": "BatchNorm", 
      "name": "DBstage1_unit5_bn2", 
      "attrs": {
        "eps": "2e-05", 
        "fix_gamma": "False", 
        "momentum": "0.9"
      }, 
      "inputs": [[90, 0, 0], [91, 0, 0], [92, 0, 0], [93, 0, 1], [94, 0, 1]]
    }, 
    {
      "op": "Activation", 
      "name": "DBstage1_unit5_relu2", 
      "attrs": {"act_type": "relu"}, 
      "inputs": [[95, 0, 0]]
    }, 
    {
      "op": "null", 
      "name": "DBstage1_unit5_conv2_weight", 
      "attrs": {
        "kernel": "(3, 3)", 
        "no_bias": "True", 
        "num_filter": "32", 
        "pad": "(1, 1)", 
        "stride": "(1, 1)", 
        "workspace": "512"
      }, 
      "inputs": []
    }, 
    {
      "op": "Convolution", 
      "name": "DBstage1_unit5_conv2", 
      "attrs": {
        "kernel": "(3, 3)", 
        "no_bias": "True", 
        "num_filter": "32", 
        "pad": "(1, 1)", 
        "stride": "(1, 1)", 
        "workspace": "512"
      }, 
      "inputs": [[96, 0, 0], [97, 0, 0]]
    }, 
    {
      "op": "Concat", 
      "name": "DBstage1_concat5", 
      "attrs": {"num_args": "2"}, 
      "inputs": [[82, 0, 0], [98, 0, 0]]
    }, 
    {
      "op": "null", 
      "name": "DBstage1_unit6_bn1_gamma", 
      "attrs": {
        "eps": "2e-05", 
        "fix_gamma": "False", 
        "momentum": "0.9"
      }, 
      "inputs": []
    }, 
    {
      "op": "null", 
      "name": "DBstage1_unit6_bn1_beta", 
      "attrs": {
        "eps": "2e-05", 
        "fix_gamma": "False", 
        "momentum": "0.9"
      }, 
      "inputs": []
    }, 
    {
      "op": "null", 
      "name": "DBstage1_unit6_bn1_moving_mean", 
      "attrs": {
        "__init__": "[\"zero\", {}]", 
        "eps": "2e-05", 
        "fix_gamma": "False", 
        "momentum": "0.9"
      }, 
      "inputs": []
    }, 
    {
      "op": "null", 
      "name": "DBstage1_unit6_bn1_moving_var", 
      "attrs": {
        "__init__": "[\"one\", {}]", 
        "eps": "2e-05", 
        "fix_gamma": "False", 
        "momentum": "0.9"
      }, 
      "inputs": []
    }, 
    {
      "op": "BatchNorm", 
      "name": "DBstage1_unit6_bn1", 
      "attrs": {
        "eps": "2e-05", 
        "fix_gamma": "False", 
        "momentum": "0.9"
      }, 
      "inputs": [[99, 0, 0], [100, 0, 0], [101, 0, 0], [102, 0, 1], [103, 0, 1]]
    }, 
    {
      "op": "Activation", 
      "name": "DBstage1_unit6_relu1", 
      "attrs": {"act_type": "relu"}, 
      "inputs": [[104, 0, 0]]
    }, 
    {
      "op": "null", 
      "name": "DBstage1_unit6_conv1_weight", 
      "attrs": {
        "kernel": "(1, 1)", 
        "no_bias": "True", 
        "num_filter": "128", 
        "pad": "(0, 0)", 
        "stride": "(1, 1)", 
        "workspace": "512"
      }, 
      "inputs": []
    }, 
    {
      "op": "Convolution", 
      "name": "DBstage1_unit6_conv1", 
      "attrs": {
        "kernel": "(1, 1)", 
        "no_bias": "True", 
        "num_filter": "128", 
        "pad": "(0, 0)", 
        "stride": "(1, 1)", 
        "workspace": "512"
      }, 
      "inputs": [[105, 0, 0], [106, 0, 0]]
    }, 
    {
      "op": "null", 
      "name": "DBstage1_unit6_bn2_gamma", 
      "attrs": {
        "eps": "2e-05", 
        "fix_gamma": "False", 
        "momentum": "0.9"
      }, 
      "inputs": []
    }, 
    {
      "op": "null", 
      "name": "DBstage1_unit6_bn2_beta", 
      "attrs": {
        "eps": "2e-05", 
        "fix_gamma": "False", 
        "momentum": "0.9"
      }, 
      "inputs": []
    }, 
    {
      "op": "null", 
      "name": "DBstage1_unit6_bn2_moving_mean", 
      "attrs": {
        "__init__": "[\"zero\", {}]", 
        "eps": "2e-05", 
        "fix_gamma": "False", 
        "momentum": "0.9"
      }, 
      "inputs": []
    }, 
    {
      "op": "null", 
      "name": "DBstage1_unit6_bn2_moving_var", 
      "attrs": {
        "__init__": "[\"one\", {}]", 
        "eps": "2e-05", 
        "fix_gamma": "False", 
        "momentum": "0.9"
      }, 
      "inputs": []
    }, 
    {
      "op": "BatchNorm", 
      "name": "DBstage1_unit6_bn2", 
      "attrs": {
        "eps": "2e-05", 
        "fix_gamma": "False", 
        "momentum": "0.9"
      }, 
      "inputs": [[107, 0, 0], [108, 0, 0], [109, 0, 0], [110, 0, 1], [111, 0, 1]]
    }, 
    {
      "op": "Activation", 
      "name": "DBstage1_unit6_relu2", 
      "attrs": {"act_type": "relu"}, 
      "inputs": [[112, 0, 0]]
    }, 
    {
      "op": "null", 
      "name": "DBstage1_unit6_conv2_weight", 
      "attrs": {
        "kernel": "(3, 3)", 
        "no_bias": "True", 
        "num_filter": "32", 
        "pad": "(1, 1)", 
        "stride": "(1, 1)", 
        "workspace": "512"
      }, 
      "inputs": []
    }, 
    {
      "op": "Convolution", 
      "name": "DBstage1_unit6_conv2", 
      "attrs": {
        "kernel": "(3, 3)", 
        "no_bias": "True", 
        "num_filter": "32", 
        "pad": "(1, 1)", 
        "stride": "(1, 1)", 
        "workspace": "512"
      }, 
      "inputs": [[113, 0, 0], [114, 0, 0]]
    }, 
    {
      "op": "Concat", 
      "name": "DBstage1_concat6", 
      "attrs": {"num_args": "2"}, 
      "inputs": [[99, 0, 0], [115, 0, 0]]
    }, 
    {
      "op": "null", 
      "name": "TBstage1_bn1_gamma", 
      "attrs": {
        "eps": "2e-05", 
        "fix_gamma": "False", 
        "momentum": "0.9"
      }, 
      "inputs": []
    }, 
    {
      "op": "null", 
      "name": "TBstage1_bn1_beta", 
      "attrs": {
        "eps": "2e-05", 
        "fix_gamma": "False", 
        "momentum": "0.9"
      }, 
      "inputs": []
    }, 
    {
      "op": "null", 
      "name": "TBstage1_bn1_moving_mean", 
      "attrs": {
        "__init__": "[\"zero\", {}]", 
        "eps": "2e-05", 
        "fix_gamma": "False", 
        "momentum": "0.9"
      }, 
      "inputs": []
    }, 
    {
      "op": "null", 
      "name": "TBstage1_bn1_moving_var", 
      "attrs": {
        "__init__": "[\"one\", {}]", 
        "eps": "2e-05", 
        "fix_gamma": "False", 
        "momentum": "0.9"
      }, 
      "inputs": []
    }, 
    {
      "op": "BatchNorm", 
      "name": "TBstage1_bn1", 
      "attrs": {
        "eps": "2e-05", 
        "fix_gamma": "False", 
        "momentum": "0.9"
      }, 
      "inputs": [[116, 0, 0], [117, 0, 0], [118, 0, 0], [119, 0, 1], [120, 0, 1]]
    }, 
    {
      "op": "Activation", 
      "name": "TBstage1_relu1", 
      "attrs": {"act_type": "relu"}, 
      "inputs": [[121, 0, 0]]
    }, 
    {
      "op": "null", 
      "name": "TBstage1_conv1_weight", 
      "attrs": {
        "kernel": "(1, 1)", 
        "no_bias": "True", 
        "num_filter": "128", 
        "pad": "(0, 0)", 
        "stride": "(1, 1)", 
        "workspace": "512"
      }, 
      "inputs": []
    }, 
    {
      "op": "Convolution", 
      "name": "TBstage1_conv1", 
      "attrs": {
        "kernel": "(1, 1)", 
        "no_bias": "True", 
        "num_filter": "128", 
        "pad": "(0, 0)", 
        "stride": "(1, 1)", 
        "workspace": "512"
      }, 
      "inputs": [[122, 0, 0], [123, 0, 0]]
    }, 
    {
      "op": "Pooling", 
      "name": "TBstage1_pool1", 
      "attrs": {
        "global_pool": "False", 
        "kernel": "(2, 2)", 
        "pool_type": "avg", 
        "stride": "(2, 2)"
      }, 
      "inputs": [[124, 0, 0]]
    }, 
    {
      "op": "null", 
      "name": "DBstage2_unit1_bn1_gamma", 
      "attrs": {
        "eps": "2e-05", 
        "fix_gamma": "False", 
        "momentum": "0.9"
      }, 
      "inputs": []
    }, 
    {
      "op": "null", 
      "name": "DBstage2_unit1_bn1_beta", 
      "attrs": {
        "eps": "2e-05", 
        "fix_gamma": "False", 
        "momentum": "0.9"
      }, 
      "inputs": []
    }, 
    {
      "op": "null", 
      "name": "DBstage2_unit1_bn1_moving_mean", 
      "attrs": {
        "__init__": "[\"zero\", {}]", 
        "eps": "2e-05", 
        "fix_gamma": "False", 
        "momentum": "0.9"
      }, 
      "inputs": []
    }, 
    {
      "op": "null", 
      "name": "DBstage2_unit1_bn1_moving_var", 
      "attrs": {
        "__init__": "[\"one\", {}]", 
        "eps": "2e-05", 
        "fix_gamma": "False", 
        "momentum": "0.9"
      }, 
      "inputs": []
    }, 
    {
      "op": "BatchNorm", 
      "name": "DBstage2_unit1_bn1", 
      "attrs": {
        "eps": "2e-05", 
        "fix_gamma": "False", 
        "momentum": "0.9"
      }, 
      "inputs": [[125, 0, 0], [126, 0, 0], [127, 0, 0], [128, 0, 1], [129, 0, 1]]
    }, 
    {
      "op": "Activation", 
      "name": "DBstage2_unit1_relu1", 
      "attrs": {"act_type": "relu"}, 
      "inputs": [[130, 0, 0]]
    }, 
    {
      "op": "null", 
      "name": "DBstage2_unit1_conv1_weight", 
      "attrs": {
        "kernel": "(1, 1)", 
        "no_bias": "True", 
        "num_filter": "128", 
        "pad": "(0, 0)", 
        "stride": "(1, 1)", 
        "workspace": "512"
      }, 
      "inputs": []
    }, 
    {
      "op": "Convolution", 
      "name": "DBstage2_unit1_conv1", 
      "attrs": {
        "kernel": "(1, 1)", 
        "no_bias": "True", 
        "num_filter": "128", 
        "pad": "(0, 0)", 
        "stride": "(1, 1)", 
        "workspace": "512"
      }, 
      "inputs": [[131, 0, 0], [132, 0, 0]]
    }, 
    {
      "op": "null", 
      "name": "DBstage2_unit1_bn2_gamma", 
      "attrs": {
        "eps": "2e-05", 
        "fix_gamma": "False", 
        "momentum": "0.9"
      }, 
      "inputs": []
    }, 
    {
      "op": "null", 
      "name": "DBstage2_unit1_bn2_beta", 
      "attrs": {
        "eps": "2e-05", 
        "fix_gamma": "False", 
        "momentum": "0.9"
      }, 
      "inputs": []
    }, 
    {
      "op": "null", 
      "name": "DBstage2_unit1_bn2_moving_mean", 
      "attrs": {
        "__init__": "[\"zero\", {}]", 
        "eps": "2e-05", 
        "fix_gamma": "False", 
        "momentum": "0.9"
      }, 
      "inputs": []
    }, 
    {
      "op": "null", 
      "name": "DBstage2_unit1_bn2_moving_var", 
      "attrs": {
        "__init__": "[\"one\", {}]", 
        "eps": "2e-05", 
        "fix_gamma": "False", 
        "momentum": "0.9"
      }, 
      "inputs": []
    }, 
    {
      "op": "BatchNorm", 
      "name": "DBstage2_unit1_bn2", 
      "attrs": {
        "eps": "2e-05", 
        "fix_gamma": "False", 
        "momentum": "0.9"
      }, 
      "inputs": [[133, 0, 0], [134, 0, 0], [135, 0, 0], [136, 0, 1], [137, 0, 1]]
    }, 
    {
      "op": "Activation", 
      "name": "DBstage2_unit1_relu2", 
      "attrs": {"act_type": "relu"}, 
      "inputs": [[138, 0, 0]]
    }, 
    {
      "op": "null", 
      "name": "DBstage2_unit1_conv2_weight", 
      "attrs": {
        "kernel": "(3, 3)", 
        "no_bias": "True", 
        "num_filter": "32", 
        "pad": "(1, 1)", 
        "stride": "(1, 1)", 
        "workspace": "512"
      }, 
      "inputs": []
    }, 
    {
      "op": "Convolution", 
      "name": "DBstage2_unit1_conv2", 
      "attrs": {
        "kernel": "(3, 3)", 
        "no_bias": "True", 
        "num_filter": "32", 
        "pad": "(1, 1)", 
        "stride": "(1, 1)", 
        "workspace": "512"
      }, 
      "inputs": [[139, 0, 0], [140, 0, 0]]
    }, 
    {
      "op": "Concat", 
      "name": "DBstage2_concat1", 
      "attrs": {"num_args": "2"}, 
      "inputs": [[125, 0, 0], [141, 0, 0]]
    }, 
    {
      "op": "null", 
      "name": "DBstage2_unit2_bn1_gamma", 
      "attrs": {
        "eps": "2e-05", 
        "fix_gamma": "False", 
        "momentum": "0.9"
      }, 
      "inputs": []
    }, 
    {
      "op": "null", 
      "name": "DBstage2_unit2_bn1_beta", 
      "attrs": {
        "eps": "2e-05", 
        "fix_gamma": "False", 
        "momentum": "0.9"
      }, 
      "inputs": []
    }, 
    {
      "op": "null", 
      "name": "DBstage2_unit2_bn1_moving_mean", 
      "attrs": {
        "__init__": "[\"zero\", {}]", 
        "eps": "2e-05", 
        "fix_gamma": "False", 
        "momentum": "0.9"
      }, 
      "inputs": []
    }, 
    {
      "op": "null", 
      "name": "DBstage2_unit2_bn1_moving_var", 
      "attrs": {
        "__init__": "[\"one\", {}]", 
        "eps": "2e-05", 
        "fix_gamma": "False", 
        "momentum": "0.9"
      }, 
      "inputs": []
    }, 
    {
      "op": "BatchNorm", 
      "name": "DBstage2_unit2_bn1", 
      "attrs": {
        "eps": "2e-05", 
        "fix_gamma": "False", 
        "momentum": "0.9"
      }, 
      "inputs": [[142, 0, 0], [143, 0, 0], [144, 0, 0], [145, 0, 1], [146, 0, 1]]
    }, 
    {
      "op": "Activation", 
      "name": "DBstage2_unit2_relu1", 
      "attrs": {"act_type": "relu"}, 
      "inputs": [[147, 0, 0]]
    }, 
    {
      "op": "null", 
      "name": "DBstage2_unit2_conv1_weight", 
      "attrs": {
        "kernel": "(1, 1)", 
        "no_bias": "True", 
        "num_filter": "128", 
        "pad": "(0, 0)", 
        "stride": "(1, 1)", 
        "workspace": "512"
      }, 
      "inputs": []
    }, 
    {
      "op": "Convolution", 
      "name": "DBstage2_unit2_conv1", 
      "attrs": {
        "kernel": "(1, 1)", 
        "no_bias": "True", 
        "num_filter": "128", 
        "pad": "(0, 0)", 
        "stride": "(1, 1)", 
        "workspace": "512"
      }, 
      "inputs": [[148, 0, 0], [149, 0, 0]]
    }, 
    {
      "op": "null", 
      "name": "DBstage2_unit2_bn2_gamma", 
      "attrs": {
        "eps": "2e-05", 
        "fix_gamma": "False", 
        "momentum": "0.9"
      }, 
      "inputs": []
    }, 
    {
      "op": "null", 
      "name": "DBstage2_unit2_bn2_beta", 
      "attrs": {
        "eps": "2e-05", 
        "fix_gamma": "False", 
        "momentum": "0.9"
      }, 
      "inputs": []
    }, 
    {
      "op": "null", 
      "name": "DBstage2_unit2_bn2_moving_mean", 
      "attrs": {
        "__init__": "[\"zero\", {}]", 
        "eps": "2e-05", 
        "fix_gamma": "False", 
        "momentum": "0.9"
      }, 
      "inputs": []
    }, 
    {
      "op": "null", 
      "name": "DBstage2_unit2_bn2_moving_var", 
      "attrs": {
        "__init__": "[\"one\", {}]", 
        "eps": "2e-05", 
        "fix_gamma": "False", 
        "momentum": "0.9"
      }, 
      "inputs": []
    }, 
    {
      "op": "BatchNorm", 
      "name": "DBstage2_unit2_bn2", 
      "attrs": {
        "eps": "2e-05", 
        "fix_gamma": "False", 
        "momentum": "0.9"
      }, 
      "inputs": [[150, 0, 0], [151, 0, 0], [152, 0, 0], [153, 0, 1], [154, 0, 1]]
    }, 
    {
      "op": "Activation", 
      "name": "DBstage2_unit2_relu2", 
      "attrs": {"act_type": "relu"}, 
      "inputs": [[155, 0, 0]]
    }, 
    {
      "op": "null", 
      "name": "DBstage2_unit2_conv2_weight", 
      "attrs": {
        "kernel": "(3, 3)", 
        "no_bias": "True", 
        "num_filter": "32", 
        "pad": "(1, 1)", 
        "stride": "(1, 1)", 
        "workspace": "512"
      }, 
      "inputs": []
    }, 
    {
      "op": "Convolution", 
      "name": "DBstage2_unit2_conv2", 
      "attrs": {
        "kernel": "(3, 3)", 
        "no_bias": "True", 
        "num_filter": "32", 
        "pad": "(1, 1)", 
        "stride": "(1, 1)", 
        "workspace": "512"
      }, 
      "inputs": [[156, 0, 0], [157, 0, 0]]
    }, 
    {
      "op": "Concat", 
      "name": "DBstage2_concat2", 
      "attrs": {"num_args": "2"}, 
      "inputs": [[142, 0, 0], [158, 0, 0]]
    }, 
    {
      "op": "null", 
      "name": "DBstage2_unit3_bn1_gamma", 
      "attrs": {
        "eps": "2e-05", 
        "fix_gamma": "False", 
        "momentum": "0.9"
      }, 
      "inputs": []
    }, 
    {
      "op": "null", 
      "name": "DBstage2_unit3_bn1_beta", 
      "attrs": {
        "eps": "2e-05", 
        "fix_gamma": "False", 
        "momentum": "0.9"
      }, 
      "inputs": []
    }, 
    {
      "op": "null", 
      "name": "DBstage2_unit3_bn1_moving_mean", 
      "attrs": {
        "__init__": "[\"zero\", {}]", 
        "eps": "2e-05", 
        "fix_gamma": "False", 
        "momentum": "0.9"
      }, 
      "inputs": []
    }, 
    {
      "op": "null", 
      "name": "DBstage2_unit3_bn1_moving_var", 
      "attrs": {
        "__init__": "[\"one\", {}]", 
        "eps": "2e-05", 
        "fix_gamma": "False", 
        "momentum": "0.9"
      }, 
      "inputs": []
    }, 
    {
      "op": "BatchNorm", 
      "name": "DBstage2_unit3_bn1", 
      "attrs": {
        "eps": "2e-05", 
        "fix_gamma": "False", 
        "momentum": "0.9"
      }, 
      "inputs": [[159, 0, 0], [160, 0, 0], [161, 0, 0], [162, 0, 1], [163, 0, 1]]
    }, 
    {
      "op": "Activation", 
      "name": "DBstage2_unit3_relu1", 
      "attrs": {"act_type": "relu"}, 
      "inputs": [[164, 0, 0]]
    }, 
    {
      "op": "null", 
      "name": "DBstage2_unit3_conv1_weight", 
      "attrs": {
        "kernel": "(1, 1)", 
        "no_bias": "True", 
        "num_filter": "128", 
        "pad": "(0, 0)", 
        "stride": "(1, 1)", 
        "workspace": "512"
      }, 
      "inputs": []
    }, 
    {
      "op": "Convolution", 
      "name": "DBstage2_unit3_conv1", 
      "attrs": {
        "kernel": "(1, 1)", 
        "no_bias": "True", 
        "num_filter": "128", 
        "pad": "(0, 0)", 
        "stride": "(1, 1)", 
        "workspace": "512"
      }, 
      "inputs": [[165, 0, 0], [166, 0, 0]]
    }, 
    {
      "op": "null", 
      "name": "DBstage2_unit3_bn2_gamma", 
      "attrs": {
        "eps": "2e-05", 
        "fix_gamma": "False", 
        "momentum": "0.9"
      }, 
      "inputs": []
    }, 
    {
      "op": "null", 
      "name": "DBstage2_unit3_bn2_beta", 
      "attrs": {
        "eps": "2e-05", 
        "fix_gamma": "False", 
        "momentum": "0.9"
      }, 
      "inputs": []
    }, 
    {
      "op": "null", 
      "name": "DBstage2_unit3_bn2_moving_mean", 
      "attrs": {
        "__init__": "[\"zero\", {}]", 
        "eps": "2e-05", 
        "fix_gamma": "False", 
        "momentum": "0.9"
      }, 
      "inputs": []
    }, 
    {
      "op": "null", 
      "name": "DBstage2_unit3_bn2_moving_var", 
      "attrs": {
        "__init__": "[\"one\", {}]", 
        "eps": "2e-05", 
        "fix_gamma": "False", 
        "momentum": "0.9"
      }, 
      "inputs": []
    }, 
    {
      "op": "BatchNorm", 
      "name": "DBstage2_unit3_bn2", 
      "attrs": {
        "eps": "2e-05", 
        "fix_gamma": "False", 
        "momentum": "0.9"
      }, 
      "inputs": [[167, 0, 0], [168, 0, 0], [169, 0, 0], [170, 0, 1], [171, 0, 1]]
    }, 
    {
      "op": "Activation", 
      "name": "DBstage2_unit3_relu2", 
      "attrs": {"act_type": "relu"}, 
      "inputs": [[172, 0, 0]]
    }, 
    {
      "op": "null", 
      "name": "DBstage2_unit3_conv2_weight", 
      "attrs": {
        "kernel": "(3, 3)", 
        "no_bias": "True", 
        "num_filter": "32", 
        "pad": "(1, 1)", 
        "stride": "(1, 1)", 
        "workspace": "512"
      }, 
      "inputs": []
    }, 
    {
      "op": "Convolution", 
      "name": "DBstage2_unit3_conv2", 
      "attrs": {
        "kernel": "(3, 3)", 
        "no_bias": "True", 
        "num_filter": "32", 
        "pad": "(1, 1)", 
        "stride": "(1, 1)", 
        "workspace": "512"
      }, 
      "inputs": [[173, 0, 0], [174, 0, 0]]
    }, 
    {
      "op": "Concat", 
      "name": "DBstage2_concat3", 
      "attrs": {"num_args": "2"}, 
      "inputs": [[159, 0, 0], [175, 0, 0]]
    }, 
    {
      "op": "null", 
      "name": "DBstage2_unit4_bn1_gamma", 
      "attrs": {
        "eps": "2e-05", 
        "fix_gamma": "False", 
        "momentum": "0.9"
      }, 
      "inputs": []
    }, 
    {
      "op": "null", 
      "name": "DBstage2_unit4_bn1_beta", 
      "attrs": {
        "eps": "2e-05", 
        "fix_gamma": "False", 
        "momentum": "0.9"
      }, 
      "inputs": []
    }, 
    {
      "op": "null", 
      "name": "DBstage2_unit4_bn1_moving_mean", 
      "attrs": {
        "__init__": "[\"zero\", {}]", 
        "eps": "2e-05", 
        "fix_gamma": "False", 
        "momentum": "0.9"
      }, 
      "inputs": []
    }, 
    {
      "op": "null", 
      "name": "DBstage2_unit4_bn1_moving_var", 
      "attrs": {
        "__init__": "[\"one\", {}]", 
        "eps": "2e-05", 
        "fix_gamma": "False", 
        "momentum": "0.9"
      }, 
      "inputs": []
    }, 
    {
      "op": "BatchNorm", 
      "name": "DBstage2_unit4_bn1", 
      "attrs": {
        "eps": "2e-05", 
        "fix_gamma": "False", 
        "momentum": "0.9"
      }, 
      "inputs": [[176, 0, 0], [177, 0, 0], [178, 0, 0], [179, 0, 1], [180, 0, 1]]
    }, 
    {
      "op": "Activation", 
      "name": "DBstage2_unit4_relu1", 
      "attrs": {"act_type": "relu"}, 
      "inputs": [[181, 0, 0]]
    }, 
    {
      "op": "null", 
      "name": "DBstage2_unit4_conv1_weight", 
      "attrs": {
        "kernel": "(1, 1)", 
        "no_bias": "True", 
        "num_filter": "128", 
        "pad": "(0, 0)", 
        "stride": "(1, 1)", 
        "workspace": "512"
      }, 
      "inputs": []
    }, 
    {
      "op": "Convolution", 
      "name": "DBstage2_unit4_conv1", 
      "attrs": {
        "kernel": "(1, 1)", 
        "no_bias": "True", 
        "num_filter": "128", 
        "pad": "(0, 0)", 
        "stride": "(1, 1)", 
        "workspace": "512"
      }, 
      "inputs": [[182, 0, 0], [183, 0, 0]]
    }, 
    {
      "op": "null", 
      "name": "DBstage2_unit4_bn2_gamma", 
      "attrs": {
        "eps": "2e-05", 
        "fix_gamma": "False", 
        "momentum": "0.9"
      }, 
      "inputs": []
    }, 
    {
      "op": "null", 
      "name": "DBstage2_unit4_bn2_beta", 
      "attrs": {
        "eps": "2e-05", 
        "fix_gamma": "False", 
        "momentum": "0.9"
      }, 
      "inputs": []
    }, 
    {
      "op": "null", 
      "name": "DBstage2_unit4_bn2_moving_mean", 
      "attrs": {
        "__init__": "[\"zero\", {}]", 
        "eps": "2e-05", 
        "fix_gamma": "False", 
        "momentum": "0.9"
      }, 
      "inputs": []
    }, 
    {
      "op": "null", 
      "name": "DBstage2_unit4_bn2_moving_var", 
      "attrs": {
        "__init__": "[\"one\", {}]", 
        "eps": "2e-05", 
        "fix_gamma": "False", 
        "momentum": "0.9"
      }, 
      "inputs": []
    }, 
    {
      "op": "BatchNorm", 
      "name": "DBstage2_unit4_bn2", 
      "attrs": {
        "eps": "2e-05", 
        "fix_gamma": "False", 
        "momentum": "0.9"
      }, 
      "inputs": [[184, 0, 0], [185, 0, 0], [186, 0, 0], [187, 0, 1], [188, 0, 1]]
    }, 
    {
      "op": "Activation", 
      "name": "DBstage2_unit4_relu2", 
      "attrs": {"act_type": "relu"}, 
      "inputs": [[189, 0, 0]]
    }, 
    {
      "op": "null", 
      "name": "DBstage2_unit4_conv2_weight", 
      "attrs": {
        "kernel": "(3, 3)", 
        "no_bias": "True", 
        "num_filter": "32", 
        "pad": "(1, 1)", 
        "stride": "(1, 1)", 
        "workspace": "512"
      }, 
      "inputs": []
    }, 
    {
      "op": "Convolution", 
      "name": "DBstage2_unit4_conv2", 
      "attrs": {
        "kernel": "(3, 3)", 
        "no_bias": "True", 
        "num_filter": "32", 
        "pad": "(1, 1)", 
        "stride": "(1, 1)", 
        "workspace": "512"
      }, 
      "inputs": [[190, 0, 0], [191, 0, 0]]
    }, 
    {
      "op": "Concat", 
      "name": "DBstage2_concat4", 
      "attrs": {"num_args": "2"}, 
      "inputs": [[176, 0, 0], [192, 0, 0]]
    }, 
    {
      "op": "null", 
      "name": "DBstage2_unit5_bn1_gamma", 
      "attrs": {
        "eps": "2e-05", 
        "fix_gamma": "False", 
        "momentum": "0.9"
      }, 
      "inputs": []
    }, 
    {
      "op": "null", 
      "name": "DBstage2_unit5_bn1_beta", 
      "attrs": {
        "eps": "2e-05", 
        "fix_gamma": "False", 
        "momentum": "0.9"
      }, 
      "inputs": []
    }, 
    {
      "op": "null", 
      "name": "DBstage2_unit5_bn1_moving_mean", 
      "attrs": {
        "__init__": "[\"zero\", {}]", 
        "eps": "2e-05", 
        "fix_gamma": "False", 
        "momentum": "0.9"
      }, 
      "inputs": []
    }, 
    {
      "op": "null", 
      "name": "DBstage2_unit5_bn1_moving_var", 
      "attrs": {
        "__init__": "[\"one\", {}]", 
        "eps": "2e-05", 
        "fix_gamma": "False", 
        "momentum": "0.9"
      }, 
      "inputs": []
    }, 
    {
      "op": "BatchNorm", 
      "name": "DBstage2_unit5_bn1", 
      "attrs": {
        "eps": "2e-05", 
        "fix_gamma": "False", 
        "momentum": "0.9"
      }, 
      "inputs": [[193, 0, 0], [194, 0, 0], [195, 0, 0], [196, 0, 1], [197, 0, 1]]
    }, 
    {
      "op": "Activation", 
      "name": "DBstage2_unit5_relu1", 
      "attrs": {"act_type": "relu"}, 
      "inputs": [[198, 0, 0]]
    }, 
    {
      "op": "null", 
      "name": "DBstage2_unit5_conv1_weight", 
      "attrs": {
        "kernel": "(1, 1)", 
        "no_bias": "True", 
        "num_filter": "128", 
        "pad": "(0, 0)", 
        "stride": "(1, 1)", 
        "workspace": "512"
      }, 
      "inputs": []
    }, 
    {
      "op": "Convolution", 
      "name": "DBstage2_unit5_conv1", 
      "attrs": {
        "kernel": "(1, 1)", 
        "no_bias": "True", 
        "num_filter": "128", 
        "pad": "(0, 0)", 
        "stride": "(1, 1)", 
        "workspace": "512"
      }, 
      "inputs": [[199, 0, 0], [200, 0, 0]]
    }, 
    {
      "op": "null", 
      "name": "DBstage2_unit5_bn2_gamma", 
      "attrs": {
        "eps": "2e-05", 
        "fix_gamma": "False", 
        "momentum": "0.9"
      }, 
      "inputs": []
    }, 
    {
      "op": "null", 
      "name": "DBstage2_unit5_bn2_beta", 
      "attrs": {
        "eps": "2e-05", 
        "fix_gamma": "False", 
        "momentum": "0.9"
      }, 
      "inputs": []
    }, 
    {
      "op": "null", 
      "name": "DBstage2_unit5_bn2_moving_mean", 
      "attrs": {
        "__init__": "[\"zero\", {}]", 
        "eps": "2e-05", 
        "fix_gamma": "False", 
        "momentum": "0.9"
      }, 
      "inputs": []
    }, 
    {
      "op": "null", 
      "name": "DBstage2_unit5_bn2_moving_var", 
      "attrs": {
        "__init__": "[\"one\", {}]", 
        "eps": "2e-05", 
        "fix_gamma": "False", 
        "momentum": "0.9"
      }, 
      "inputs": []
    }, 
    {
      "op": "BatchNorm", 
      "name": "DBstage2_unit5_bn2", 
      "attrs": {
        "eps": "2e-05", 
        "fix_gamma": "False", 
        "momentum": "0.9"
      }, 
      "inputs": [[201, 0, 0], [202, 0, 0], [203, 0, 0], [204, 0, 1], [205, 0, 1]]
    }, 
    {
      "op": "Activation", 
      "name": "DBstage2_unit5_relu2", 
      "attrs": {"act_type": "relu"}, 
      "inputs": [[206, 0, 0]]
    }, 
    {
      "op": "null", 
      "name": "DBstage2_unit5_conv2_weight", 
      "attrs": {
        "kernel": "(3, 3)", 
        "no_bias": "True", 
        "num_filter": "32", 
        "pad": "(1, 1)", 
        "stride": "(1, 1)", 
        "workspace": "512"
      }, 
      "inputs": []
    }, 
    {
      "op": "Convolution", 
      "name": "DBstage2_unit5_conv2", 
      "attrs": {
        "kernel": "(3, 3)", 
        "no_bias": "True", 
        "num_filter": "32", 
        "pad": "(1, 1)", 
        "stride": "(1, 1)", 
        "workspace": "512"
      }, 
      "inputs": [[207, 0, 0], [208, 0, 0]]
    }, 
    {
      "op": "Concat", 
      "name": "DBstage2_concat5", 
      "attrs": {"num_args": "2"}, 
      "inputs": [[193, 0, 0], [209, 0, 0]]
    }, 
    {
      "op": "null", 
      "name": "DBstage2_unit6_bn1_gamma", 
      "attrs": {
        "eps": "2e-05", 
        "fix_gamma": "False", 
        "momentum": "0.9"
      }, 
      "inputs": []
    }, 
    {
      "op": "null", 
      "name": "DBstage2_unit6_bn1_beta", 
      "attrs": {
        "eps": "2e-05", 
        "fix_gamma": "False", 
        "momentum": "0.9"
      }, 
      "inputs": []
    }, 
    {
      "op": "null", 
      "name": "DBstage2_unit6_bn1_moving_mean", 
      "attrs": {
        "__init__": "[\"zero\", {}]", 
        "eps": "2e-05", 
        "fix_gamma": "False", 
        "momentum": "0.9"
      }, 
      "inputs": []
    }, 
    {
      "op": "null", 
      "name": "DBstage2_unit6_bn1_moving_var", 
      "attrs": {
        "__init__": "[\"one\", {}]", 
        "eps": "2e-05", 
        "fix_gamma": "False", 
        "momentum": "0.9"
      }, 
      "inputs": []
    }, 
    {
      "op": "BatchNorm", 
      "name": "DBstage2_unit6_bn1", 
      "attrs": {
        "eps": "2e-05", 
        "fix_gamma": "False", 
        "momentum": "0.9"
      }, 
      "inputs": [[210, 0, 0], [211, 0, 0], [212, 0, 0], [213, 0, 1], [214, 0, 1]]
    }, 
    {
      "op": "Activation", 
      "name": "DBstage2_unit6_relu1", 
      "attrs": {"act_type": "relu"}, 
      "inputs": [[215, 0, 0]]
    }, 
    {
      "op": "null", 
      "name": "DBstage2_unit6_conv1_weight", 
      "attrs": {
        "kernel": "(1, 1)", 
        "no_bias": "True", 
        "num_filter": "128", 
        "pad": "(0, 0)", 
        "stride": "(1, 1)", 
        "workspace": "512"
      }, 
      "inputs": []
    }, 
    {
      "op": "Convolution", 
      "name": "DBstage2_unit6_conv1", 
      "attrs": {
        "kernel": "(1, 1)", 
        "no_bias": "True", 
        "num_filter": "128", 
        "pad": "(0, 0)", 
        "stride": "(1, 1)", 
        "workspace": "512"
      }, 
      "inputs": [[216, 0, 0], [217, 0, 0]]
    }, 
    {
      "op": "null", 
      "name": "DBstage2_unit6_bn2_gamma", 
      "attrs": {
        "eps": "2e-05", 
        "fix_gamma": "False", 
        "momentum": "0.9"
      }, 
      "inputs": []
    }, 
    {
      "op": "null", 
      "name": "DBstage2_unit6_bn2_beta", 
      "attrs": {
        "eps": "2e-05", 
        "fix_gamma": "False", 
        "momentum": "0.9"
      }, 
      "inputs": []
    }, 
    {
      "op": "null", 
      "name": "DBstage2_unit6_bn2_moving_mean", 
      "attrs": {
        "__init__": "[\"zero\", {}]", 
        "eps": "2e-05", 
        "fix_gamma": "False", 
        "momentum": "0.9"
      }, 
      "inputs": []
    }, 
    {
      "op": "null", 
      "name": "DBstage2_unit6_bn2_moving_var", 
      "attrs": {
        "__init__": "[\"one\", {}]", 
        "eps": "2e-05", 
        "fix_gamma": "False", 
        "momentum": "0.9"
      }, 
      "inputs": []
    }, 
    {
      "op": "BatchNorm", 
      "name": "DBstage2_unit6_bn2", 
      "attrs": {
        "eps": "2e-05", 
        "fix_gamma": "False", 
        "momentum": "0.9"
      }, 
      "inputs": [[218, 0, 0], [219, 0, 0], [220, 0, 0], [221, 0, 1], [222, 0, 1]]
    }, 
    {
      "op": "Activation", 
      "name": "DBstage2_unit6_relu2", 
      "attrs": {"act_type": "relu"}, 
      "inputs": [[223, 0, 0]]
    }, 
    {
      "op": "null", 
      "name": "DBstage2_unit6_conv2_weight", 
      "attrs": {
        "kernel": "(3, 3)", 
        "no_bias": "True", 
        "num_filter": "32", 
        "pad": "(1, 1)", 
        "stride": "(1, 1)", 
        "workspace": "512"
      }, 
      "inputs": []
    }, 
    {
      "op": "Convolution", 
      "name": "DBstage2_unit6_conv2", 
      "attrs": {
        "kernel": "(3, 3)", 
        "no_bias": "True", 
        "num_filter": "32", 
        "pad": "(1, 1)", 
        "stride": "(1, 1)", 
        "workspace": "512"
      }, 
      "inputs": [[224, 0, 0], [225, 0, 0]]
    }, 
    {
      "op": "Concat", 
      "name": "DBstage2_concat6", 
      "attrs": {"num_args": "2"}, 
      "inputs": [[210, 0, 0], [226, 0, 0]]
    }, 
    {
      "op": "null", 
      "name": "DBstage2_unit7_bn1_gamma", 
      "attrs": {
        "eps": "2e-05", 
        "fix_gamma": "False", 
        "momentum": "0.9"
      }, 
      "inputs": []
    }, 
    {
      "op": "null", 
      "name": "DBstage2_unit7_bn1_beta", 
      "attrs": {
        "eps": "2e-05", 
        "fix_gamma": "False", 
        "momentum": "0.9"
      }, 
      "inputs": []
    }, 
    {
      "op": "null", 
      "name": "DBstage2_unit7_bn1_moving_mean", 
      "attrs": {
        "__init__": "[\"zero\", {}]", 
        "eps": "2e-05", 
        "fix_gamma": "False", 
        "momentum": "0.9"
      }, 
      "inputs": []
    }, 
    {
      "op": "null", 
      "name": "DBstage2_unit7_bn1_moving_var", 
      "attrs": {
        "__init__": "[\"one\", {}]", 
        "eps": "2e-05", 
        "fix_gamma": "False", 
        "momentum": "0.9"
      }, 
      "inputs": []
    }, 
    {
      "op": "BatchNorm", 
      "name": "DBstage2_unit7_bn1", 
      "attrs": {
        "eps": "2e-05", 
        "fix_gamma": "False", 
        "momentum": "0.9"
      }, 
      "inputs": [[227, 0, 0], [228, 0, 0], [229, 0, 0], [230, 0, 1], [231, 0, 1]]
    }, 
    {
      "op": "Activation", 
      "name": "DBstage2_unit7_relu1", 
      "attrs": {"act_type": "relu"}, 
      "inputs": [[232, 0, 0]]
    }, 
    {
      "op": "null", 
      "name": "DBstage2_unit7_conv1_weight", 
      "attrs": {
        "kernel": "(1, 1)", 
        "no_bias": "True", 
        "num_filter": "128", 
        "pad": "(0, 0)", 
        "stride": "(1, 1)", 
        "workspace": "512"
      }, 
      "inputs": []
    }, 
    {
      "op": "Convolution", 
      "name": "DBstage2_unit7_conv1", 
      "attrs": {
        "kernel": "(1, 1)", 
        "no_bias": "True", 
        "num_filter": "128", 
        "pad": "(0, 0)", 
        "stride": "(1, 1)", 
        "workspace": "512"
      }, 
      "inputs": [[233, 0, 0], [234, 0, 0]]
    }, 
    {
      "op": "null", 
      "name": "DBstage2_unit7_bn2_gamma", 
      "attrs": {
        "eps": "2e-05", 
        "fix_gamma": "False", 
        "momentum": "0.9"
      }, 
      "inputs": []
    }, 
    {
      "op": "null", 
      "name": "DBstage2_unit7_bn2_beta", 
      "attrs": {
        "eps": "2e-05", 
        "fix_gamma": "False", 
        "momentum": "0.9"
      }, 
      "inputs": []
    }, 
    {
      "op": "null", 
      "name": "DBstage2_unit7_bn2_moving_mean", 
      "attrs": {
        "__init__": "[\"zero\", {}]", 
        "eps": "2e-05", 
        "fix_gamma": "False", 
        "momentum": "0.9"
      }, 
      "inputs": []
    }, 
    {
      "op": "null", 
      "name": "DBstage2_unit7_bn2_moving_var", 
      "attrs": {
        "__init__": "[\"one\", {}]", 
        "eps": "2e-05", 
        "fix_gamma": "False", 
        "momentum": "0.9"
      }, 
      "inputs": []
    }, 
    {
      "op": "BatchNorm", 
      "name": "DBstage2_unit7_bn2", 
      "attrs": {
        "eps": "2e-05", 
        "fix_gamma": "False", 
        "momentum": "0.9"
      }, 
      "inputs": [[235, 0, 0], [236, 0, 0], [237, 0, 0], [238, 0, 1], [239, 0, 1]]
    }, 
    {
      "op": "Activation", 
      "name": "DBstage2_unit7_relu2", 
      "attrs": {"act_type": "relu"}, 
      "inputs": [[240, 0, 0]]
    }, 
    {
      "op": "null", 
      "name": "DBstage2_unit7_conv2_weight", 
      "attrs": {
        "kernel": "(3, 3)", 
        "no_bias": "True", 
        "num_filter": "32", 
        "pad": "(1, 1)", 
        "stride": "(1, 1)", 
        "workspace": "512"
      }, 
      "inputs": []
    }, 
    {
      "op": "Convolution", 
      "name": "DBstage2_unit7_conv2", 
      "attrs": {
        "kernel": "(3, 3)", 
        "no_bias": "True", 
        "num_filter": "32", 
        "pad": "(1, 1)", 
        "stride": "(1, 1)", 
        "workspace": "512"
      }, 
      "inputs": [[241, 0, 0], [242, 0, 0]]
    }, 
    {
      "op": "Concat", 
      "name": "DBstage2_concat7", 
      "attrs": {"num_args": "2"}, 
      "inputs": [[227, 0, 0], [243, 0, 0]]
    }, 
    {
      "op": "null", 
      "name": "DBstage2_unit8_bn1_gamma", 
      "attrs": {
        "eps": "2e-05", 
        "fix_gamma": "False", 
        "momentum": "0.9"
      }, 
      "inputs": []
    }, 
    {
      "op": "null", 
      "name": "DBstage2_unit8_bn1_beta", 
      "attrs": {
        "eps": "2e-05", 
        "fix_gamma": "False", 
        "momentum": "0.9"
      }, 
      "inputs": []
    }, 
    {
      "op": "null", 
      "name": "DBstage2_unit8_bn1_moving_mean", 
      "attrs": {
        "__init__": "[\"zero\", {}]", 
        "eps": "2e-05", 
        "fix_gamma": "False", 
        "momentum": "0.9"
      }, 
      "inputs": []
    }, 
    {
      "op": "null", 
      "name": "DBstage2_unit8_bn1_moving_var", 
      "attrs": {
        "__init__": "[\"one\", {}]", 
        "eps": "2e-05", 
        "fix_gamma": "False", 
        "momentum": "0.9"
      }, 
      "inputs": []
    }, 
    {
      "op": "BatchNorm", 
      "name": "DBstage2_unit8_bn1", 
      "attrs": {
        "eps": "2e-05", 
        "fix_gamma": "False", 
        "momentum": "0.9"
      }, 
      "inputs": [[244, 0, 0], [245, 0, 0], [246, 0, 0], [247, 0, 1], [248, 0, 1]]
    }, 
    {
      "op": "Activation", 
      "name": "DBstage2_unit8_relu1", 
      "attrs": {"act_type": "relu"}, 
      "inputs": [[249, 0, 0]]
    }, 
    {
      "op": "null", 
      "name": "DBstage2_unit8_conv1_weight", 
      "attrs": {
        "kernel": "(1, 1)", 
        "no_bias": "True", 
        "num_filter": "128", 
        "pad": "(0, 0)", 
        "stride": "(1, 1)", 
        "workspace": "512"
      }, 
      "inputs": []
    }, 
    {
      "op": "Convolution", 
      "name": "DBstage2_unit8_conv1", 
      "attrs": {
        "kernel": "(1, 1)", 
        "no_bias": "True", 
        "num_filter": "128", 
        "pad": "(0, 0)", 
        "stride": "(1, 1)", 
        "workspace": "512"
      }, 
      "inputs": [[250, 0, 0], [251, 0, 0]]
    }, 
    {
      "op": "null", 
      "name": "DBstage2_unit8_bn2_gamma", 
      "attrs": {
        "eps": "2e-05", 
        "fix_gamma": "False", 
        "momentum": "0.9"
      }, 
      "inputs": []
    }, 
    {
      "op": "null", 
      "name": "DBstage2_unit8_bn2_beta", 
      "attrs": {
        "eps": "2e-05", 
        "fix_gamma": "False", 
        "momentum": "0.9"
      }, 
      "inputs": []
    }, 
    {
      "op": "null", 
      "name": "DBstage2_unit8_bn2_moving_mean", 
      "attrs": {
        "__init__": "[\"zero\", {}]", 
        "eps": "2e-05", 
        "fix_gamma": "False", 
        "momentum": "0.9"
      }, 
      "inputs": []
    }, 
    {
      "op": "null", 
      "name": "DBstage2_unit8_bn2_moving_var", 
      "attrs": {
        "__init__": "[\"one\", {}]", 
        "eps": "2e-05", 
        "fix_gamma": "False", 
        "momentum": "0.9"
      }, 
      "inputs": []
    }, 
    {
      "op": "BatchNorm", 
      "name": "DBstage2_unit8_bn2", 
      "attrs": {
        "eps": "2e-05", 
        "fix_gamma": "False", 
        "momentum": "0.9"
      }, 
      "inputs": [[252, 0, 0], [253, 0, 0], [254, 0, 0], [255, 0, 1], [256, 0, 1]]
    }, 
    {
      "op": "Activation", 
      "name": "DBstage2_unit8_relu2", 
      "attrs": {"act_type": "relu"}, 
      "inputs": [[257, 0, 0]]
    }, 
    {
      "op": "null", 
      "name": "DBstage2_unit8_conv2_weight", 
      "attrs": {
        "kernel": "(3, 3)", 
        "no_bias": "True", 
        "num_filter": "32", 
        "pad": "(1, 1)", 
        "stride": "(1, 1)", 
        "workspace": "512"
      }, 
      "inputs": []
    }, 
    {
      "op": "Convolution", 
      "name": "DBstage2_unit8_conv2", 
      "attrs": {
        "kernel": "(3, 3)", 
        "no_bias": "True", 
        "num_filter": "32", 
        "pad": "(1, 1)", 
        "stride": "(1, 1)", 
        "workspace": "512"
      }, 
      "inputs": [[258, 0, 0], [259, 0, 0]]
    }, 
    {
      "op": "Concat", 
      "name": "DBstage2_concat8", 
      "attrs": {"num_args": "2"}, 
      "inputs": [[244, 0, 0], [260, 0, 0]]
    }, 
    {
      "op": "null", 
      "name": "DBstage2_unit9_bn1_gamma", 
      "attrs": {
        "eps": "2e-05", 
        "fix_gamma": "False", 
        "momentum": "0.9"
      }, 
      "inputs": []
    }, 
    {
      "op": "null", 
      "name": "DBstage2_unit9_bn1_beta", 
      "attrs": {
        "eps": "2e-05", 
        "fix_gamma": "False", 
        "momentum": "0.9"
      }, 
      "inputs": []
    }, 
    {
      "op": "null", 
      "name": "DBstage2_unit9_bn1_moving_mean", 
      "attrs": {
        "__init__": "[\"zero\", {}]", 
        "eps": "2e-05", 
        "fix_gamma": "False", 
        "momentum": "0.9"
      }, 
      "inputs": []
    }, 
    {
      "op": "null", 
      "name": "DBstage2_unit9_bn1_moving_var", 
      "attrs": {
        "__init__": "[\"one\", {}]", 
        "eps": "2e-05", 
        "fix_gamma": "False", 
        "momentum": "0.9"
      }, 
      "inputs": []
    }, 
    {
      "op": "BatchNorm", 
      "name": "DBstage2_unit9_bn1", 
      "attrs": {
        "eps": "2e-05", 
        "fix_gamma": "False", 
        "momentum": "0.9"
      }, 
      "inputs": [[261, 0, 0], [262, 0, 0], [263, 0, 0], [264, 0, 1], [265, 0, 1]]
    }, 
    {
      "op": "Activation", 
      "name": "DBstage2_unit9_relu1", 
      "attrs": {"act_type": "relu"}, 
      "inputs": [[266, 0, 0]]
    }, 
    {
      "op": "null", 
      "name": "DBstage2_unit9_conv1_weight", 
      "attrs": {
        "kernel": "(1, 1)", 
        "no_bias": "True", 
        "num_filter": "128", 
        "pad": "(0, 0)", 
        "stride": "(1, 1)", 
        "workspace": "512"
      }, 
      "inputs": []
    }, 
    {
      "op": "Convolution", 
      "name": "DBstage2_unit9_conv1", 
      "attrs": {
        "kernel": "(1, 1)", 
        "no_bias": "True", 
        "num_filter": "128", 
        "pad": "(0, 0)", 
        "stride": "(1, 1)", 
        "workspace": "512"
      }, 
      "inputs": [[267, 0, 0], [268, 0, 0]]
    }, 
    {
      "op": "null", 
      "name": "DBstage2_unit9_bn2_gamma", 
      "attrs": {
        "eps": "2e-05", 
        "fix_gamma": "False", 
        "momentum": "0.9"
      }, 
      "inputs": []
    }, 
    {
      "op": "null", 
      "name": "DBstage2_unit9_bn2_beta", 
      "attrs": {
        "eps": "2e-05", 
        "fix_gamma": "False", 
        "momentum": "0.9"
      }, 
      "inputs": []
    }, 
    {
      "op": "null", 
      "name": "DBstage2_unit9_bn2_moving_mean", 
      "attrs": {
        "__init__": "[\"zero\", {}]", 
        "eps": "2e-05", 
        "fix_gamma": "False", 
        "momentum": "0.9"
      }, 
      "inputs": []
    }, 
    {
      "op": "null", 
      "name": "DBstage2_unit9_bn2_moving_var", 
      "attrs": {
        "__init__": "[\"one\", {}]", 
        "eps": "2e-05", 
        "fix_gamma": "False", 
        "momentum": "0.9"
      }, 
      "inputs": []
    }, 
    {
      "op": "BatchNorm", 
      "name": "DBstage2_unit9_bn2", 
      "attrs": {
        "eps": "2e-05", 
        "fix_gamma": "False", 
        "momentum": "0.9"
      }, 
      "inputs": [[269, 0, 0], [270, 0, 0], [271, 0, 0], [272, 0, 1], [273, 0, 1]]
    }, 
    {
      "op": "Activation", 
      "name": "DBstage2_unit9_relu2", 
      "attrs": {"act_type": "relu"}, 
      "inputs": [[274, 0, 0]]
    }, 
    {
      "op": "null", 
      "name": "DBstage2_unit9_conv2_weight", 
      "attrs": {
        "kernel": "(3, 3)", 
        "no_bias": "True", 
        "num_filter": "32", 
        "pad": "(1, 1)", 
        "stride": "(1, 1)", 
        "workspace": "512"
      }, 
      "inputs": []
    }, 
    {
      "op": "Convolution", 
      "name": "DBstage2_unit9_conv2", 
      "attrs": {
        "kernel": "(3, 3)", 
        "no_bias": "True", 
        "num_filter": "32", 
        "pad": "(1, 1)", 
        "stride": "(1, 1)", 
        "workspace": "512"
      }, 
      "inputs": [[275, 0, 0], [276, 0, 0]]
    }, 
    {
      "op": "Concat", 
      "name": "DBstage2_concat9", 
      "attrs": {"num_args": "2"}, 
      "inputs": [[261, 0, 0], [277, 0, 0]]
    }, 
    {
      "op": "null", 
      "name": "DBstage2_unit10_bn1_gamma", 
      "attrs": {
        "eps": "2e-05", 
        "fix_gamma": "False", 
        "momentum": "0.9"
      }, 
      "inputs": []
    }, 
    {
      "op": "null", 
      "name": "DBstage2_unit10_bn1_beta", 
      "attrs": {
        "eps": "2e-05", 
        "fix_gamma": "False", 
        "momentum": "0.9"
      }, 
      "inputs": []
    }, 
    {
      "op": "null", 
      "name": "DBstage2_unit10_bn1_moving_mean", 
      "attrs": {
        "__init__": "[\"zero\", {}]", 
        "eps": "2e-05", 
        "fix_gamma": "False", 
        "momentum": "0.9"
      }, 
      "inputs": []
    }, 
    {
      "op": "null", 
      "name": "DBstage2_unit10_bn1_moving_var", 
      "attrs": {
        "__init__": "[\"one\", {}]", 
        "eps": "2e-05", 
        "fix_gamma": "False", 
        "momentum": "0.9"
      }, 
      "inputs": []
    }, 
    {
      "op": "BatchNorm", 
      "name": "DBstage2_unit10_bn1", 
      "attrs": {
        "eps": "2e-05", 
        "fix_gamma": "False", 
        "momentum": "0.9"
      }, 
      "inputs": [[278, 0, 0], [279, 0, 0], [280, 0, 0], [281, 0, 1], [282, 0, 1]]
    }, 
    {
      "op": "Activation", 
      "name": "DBstage2_unit10_relu1", 
      "attrs": {"act_type": "relu"}, 
      "inputs": [[283, 0, 0]]
    }, 
    {
      "op": "null", 
      "name": "DBstage2_unit10_conv1_weight", 
      "attrs": {
        "kernel": "(1, 1)", 
        "no_bias": "True", 
        "num_filter": "128", 
        "pad": "(0, 0)", 
        "stride": "(1, 1)", 
        "workspace": "512"
      }, 
      "inputs": []
    }, 
    {
      "op": "Convolution", 
      "name": "DBstage2_unit10_conv1", 
      "attrs": {
        "kernel": "(1, 1)", 
        "no_bias": "True", 
        "num_filter": "128", 
        "pad": "(0, 0)", 
        "stride": "(1, 1)", 
        "workspace": "512"
      }, 
      "inputs": [[284, 0, 0], [285, 0, 0]]
    }, 
    {
      "op": "null", 
      "name": "DBstage2_unit10_bn2_gamma", 
      "attrs": {
        "eps": "2e-05", 
        "fix_gamma": "False", 
        "momentum": "0.9"
      }, 
      "inputs": []
    }, 
    {
      "op": "null", 
      "name": "DBstage2_unit10_bn2_beta", 
      "attrs": {
        "eps": "2e-05", 
        "fix_gamma": "False", 
        "momentum": "0.9"
      }, 
      "inputs": []
    }, 
    {
      "op": "null", 
      "name": "DBstage2_unit10_bn2_moving_mean", 
      "attrs": {
        "__init__": "[\"zero\", {}]", 
        "eps": "2e-05", 
        "fix_gamma": "False", 
        "momentum": "0.9"
      }, 
      "inputs": []
    }, 
    {
      "op": "null", 
      "name": "DBstage2_unit10_bn2_moving_var", 
      "attrs": {
        "__init__": "[\"one\", {}]", 
        "eps": "2e-05", 
        "fix_gamma": "False", 
        "momentum": "0.9"
      }, 
      "inputs": []
    }, 
    {
      "op": "BatchNorm", 
      "name": "DBstage2_unit10_bn2", 
      "attrs": {
        "eps": "2e-05", 
        "fix_gamma": "False", 
        "momentum": "0.9"
      }, 
      "inputs": [[286, 0, 0], [287, 0, 0], [288, 0, 0], [289, 0, 1], [290, 0, 1]]
    }, 
    {
      "op": "Activation", 
      "name": "DBstage2_unit10_relu2", 
      "attrs": {"act_type": "relu"}, 
      "inputs": [[291, 0, 0]]
    }, 
    {
      "op": "null", 
      "name": "DBstage2_unit10_conv2_weight", 
      "attrs": {
        "kernel": "(3, 3)", 
        "no_bias": "True", 
        "num_filter": "32", 
        "pad": "(1, 1)", 
        "stride": "(1, 1)", 
        "workspace": "512"
      }, 
      "inputs": []
    }, 
    {
      "op": "Convolution", 
      "name": "DBstage2_unit10_conv2", 
      "attrs": {
        "kernel": "(3, 3)", 
        "no_bias": "True", 
        "num_filter": "32", 
        "pad": "(1, 1)", 
        "stride": "(1, 1)", 
        "workspace": "512"
      }, 
      "inputs": [[292, 0, 0], [293, 0, 0]]
    }, 
    {
      "op": "Concat", 
      "name": "DBstage2_concat10", 
      "attrs": {"num_args": "2"}, 
      "inputs": [[278, 0, 0], [294, 0, 0]]
    }, 
    {
      "op": "null", 
      "name": "DBstage2_unit11_bn1_gamma", 
      "attrs": {
        "eps": "2e-05", 
        "fix_gamma": "False", 
        "momentum": "0.9"
      }, 
      "inputs": []
    }, 
    {
      "op": "null", 
      "name": "DBstage2_unit11_bn1_beta", 
      "attrs": {
        "eps": "2e-05", 
        "fix_gamma": "False", 
        "momentum": "0.9"
      }, 
      "inputs": []
    }, 
    {
      "op": "null", 
      "name": "DBstage2_unit11_bn1_moving_mean", 
      "attrs": {
        "__init__": "[\"zero\", {}]", 
        "eps": "2e-05", 
        "fix_gamma": "False", 
        "momentum": "0.9"
      }, 
      "inputs": []
    }, 
    {
      "op": "null", 
      "name": "DBstage2_unit11_bn1_moving_var", 
      "attrs": {
        "__init__": "[\"one\", {}]", 
        "eps": "2e-05", 
        "fix_gamma": "False", 
        "momentum": "0.9"
      }, 
      "inputs": []
    }, 
    {
      "op": "BatchNorm", 
      "name": "DBstage2_unit11_bn1", 
      "attrs": {
        "eps": "2e-05", 
        "fix_gamma": "False", 
        "momentum": "0.9"
      }, 
      "inputs": [[295, 0, 0], [296, 0, 0], [297, 0, 0], [298, 0, 1], [299, 0, 1]]
    }, 
    {
      "op": "Activation", 
      "name": "DBstage2_unit11_relu1", 
      "attrs": {"act_type": "relu"}, 
      "inputs": [[300, 0, 0]]
    }, 
    {
      "op": "null", 
      "name": "DBstage2_unit11_conv1_weight", 
      "attrs": {
        "kernel": "(1, 1)", 
        "no_bias": "True", 
        "num_filter": "128", 
        "pad": "(0, 0)", 
        "stride": "(1, 1)", 
        "workspace": "512"
      }, 
      "inputs": []
    }, 
    {
      "op": "Convolution", 
      "name": "DBstage2_unit11_conv1", 
      "attrs": {
        "kernel": "(1, 1)", 
        "no_bias": "True", 
        "num_filter": "128", 
        "pad": "(0, 0)", 
        "stride": "(1, 1)", 
        "workspace": "512"
      }, 
      "inputs": [[301, 0, 0], [302, 0, 0]]
    }, 
    {
      "op": "null", 
      "name": "DBstage2_unit11_bn2_gamma", 
      "attrs": {
        "eps": "2e-05", 
        "fix_gamma": "False", 
        "momentum": "0.9"
      }, 
      "inputs": []
    }, 
    {
      "op": "null", 
      "name": "DBstage2_unit11_bn2_beta", 
      "attrs": {
        "eps": "2e-05", 
        "fix_gamma": "False", 
        "momentum": "0.9"
      }, 
      "inputs": []
    }, 
    {
      "op": "null", 
      "name": "DBstage2_unit11_bn2_moving_mean", 
      "attrs": {
        "__init__": "[\"zero\", {}]", 
        "eps": "2e-05", 
        "fix_gamma": "False", 
        "momentum": "0.9"
      }, 
      "inputs": []
    }, 
    {
      "op": "null", 
      "name": "DBstage2_unit11_bn2_moving_var", 
      "attrs": {
        "__init__": "[\"one\", {}]", 
        "eps": "2e-05", 
        "fix_gamma": "False", 
        "momentum": "0.9"
      }, 
      "inputs": []
    }, 
    {
      "op": "BatchNorm", 
      "name": "DBstage2_unit11_bn2", 
      "attrs": {
        "eps": "2e-05", 
        "fix_gamma": "False", 
        "momentum": "0.9"
      }, 
      "inputs": [[303, 0, 0], [304, 0, 0], [305, 0, 0], [306, 0, 1], [307, 0, 1]]
    }, 
    {
      "op": "Activation", 
      "name": "DBstage2_unit11_relu2", 
      "attrs": {"act_type": "relu"}, 
      "inputs": [[308, 0, 0]]
    }, 
    {
      "op": "null", 
      "name": "DBstage2_unit11_conv2_weight", 
      "attrs": {
        "kernel": "(3, 3)", 
        "no_bias": "True", 
        "num_filter": "32", 
        "pad": "(1, 1)", 
        "stride": "(1, 1)", 
        "workspace": "512"
      }, 
      "inputs": []
    }, 
    {
      "op": "Convolution", 
      "name": "DBstage2_unit11_conv2", 
      "attrs": {
        "kernel": "(3, 3)", 
        "no_bias": "True", 
        "num_filter": "32", 
        "pad": "(1, 1)", 
        "stride": "(1, 1)", 
        "workspace": "512"
      }, 
      "inputs": [[309, 0, 0], [310, 0, 0]]
    }, 
    {
      "op": "Concat", 
      "name": "DBstage2_concat11", 
      "attrs": {"num_args": "2"}, 
      "inputs": [[295, 0, 0], [311, 0, 0]]
    }, 
    {
      "op": "null", 
      "name": "DBstage2_unit12_bn1_gamma", 
      "attrs": {
        "eps": "2e-05", 
        "fix_gamma": "False", 
        "momentum": "0.9"
      }, 
      "inputs": []
    }, 
    {
      "op": "null", 
      "name": "DBstage2_unit12_bn1_beta", 
      "attrs": {
        "eps": "2e-05", 
        "fix_gamma": "False", 
        "momentum": "0.9"
      }, 
      "inputs": []
    }, 
    {
      "op": "null", 
      "name": "DBstage2_unit12_bn1_moving_mean", 
      "attrs": {
        "__init__": "[\"zero\", {}]", 
        "eps": "2e-05", 
        "fix_gamma": "False", 
        "momentum": "0.9"
      }, 
      "inputs": []
    }, 
    {
      "op": "null", 
      "name": "DBstage2_unit12_bn1_moving_var", 
      "attrs": {
        "__init__": "[\"one\", {}]", 
        "eps": "2e-05", 
        "fix_gamma": "False", 
        "momentum": "0.9"
      }, 
      "inputs": []
    }, 
    {
      "op": "BatchNorm", 
      "name": "DBstage2_unit12_bn1", 
      "attrs": {
        "eps": "2e-05", 
        "fix_gamma": "False", 
        "momentum": "0.9"
      }, 
      "inputs": [[312, 0, 0], [313, 0, 0], [314, 0, 0], [315, 0, 1], [316, 0, 1]]
    }, 
    {
      "op": "Activation", 
      "name": "DBstage2_unit12_relu1", 
      "attrs": {"act_type": "relu"}, 
      "inputs": [[317, 0, 0]]
    }, 
    {
      "op": "null", 
      "name": "DBstage2_unit12_conv1_weight", 
      "attrs": {
        "kernel": "(1, 1)", 
        "no_bias": "True", 
        "num_filter": "128", 
        "pad": "(0, 0)", 
        "stride": "(1, 1)", 
        "workspace": "512"
      }, 
      "inputs": []
    }, 
    {
      "op": "Convolution", 
      "name": "DBstage2_unit12_conv1", 
      "attrs": {
        "kernel": "(1, 1)", 
        "no_bias": "True", 
        "num_filter": "128", 
        "pad": "(0, 0)", 
        "stride": "(1, 1)", 
        "workspace": "512"
      }, 
      "inputs": [[318, 0, 0], [319, 0, 0]]
    }, 
    {
      "op": "null", 
      "name": "DBstage2_unit12_bn2_gamma", 
      "attrs": {
        "eps": "2e-05", 
        "fix_gamma": "False", 
        "momentum": "0.9"
      }, 
      "inputs": []
    }, 
    {
      "op": "null", 
      "name": "DBstage2_unit12_bn2_beta", 
      "attrs": {
        "eps": "2e-05", 
        "fix_gamma": "False", 
        "momentum": "0.9"
      }, 
      "inputs": []
    }, 
    {
      "op": "null", 
      "name": "DBstage2_unit12_bn2_moving_mean", 
      "attrs": {
        "__init__": "[\"zero\", {}]", 
        "eps": "2e-05", 
        "fix_gamma": "False", 
        "momentum": "0.9"
      }, 
      "inputs": []
    }, 
    {
      "op": "null", 
      "name": "DBstage2_unit12_bn2_moving_var", 
      "attrs": {
        "__init__": "[\"one\", {}]", 
        "eps": "2e-05", 
        "fix_gamma": "False", 
        "momentum": "0.9"
      }, 
      "inputs": []
    }, 
    {
      "op": "BatchNorm", 
      "name": "DBstage2_unit12_bn2", 
      "attrs": {
        "eps": "2e-05", 
        "fix_gamma": "False", 
        "momentum": "0.9"
      }, 
      "inputs": [[320, 0, 0], [321, 0, 0], [322, 0, 0], [323, 0, 1], [324, 0, 1]]
    }, 
    {
      "op": "Activation", 
      "name": "DBstage2_unit12_relu2", 
      "attrs": {"act_type": "relu"}, 
      "inputs": [[325, 0, 0]]
    }, 
    {
      "op": "null", 
      "name": "DBstage2_unit12_conv2_weight", 
      "attrs": {
        "kernel": "(3, 3)", 
        "no_bias": "True", 
        "num_filter": "32", 
        "pad": "(1, 1)", 
        "stride": "(1, 1)", 
        "workspace": "512"
      }, 
      "inputs": []
    }, 
    {
      "op": "Convolution", 
      "name": "DBstage2_unit12_conv2", 
      "attrs": {
        "kernel": "(3, 3)", 
        "no_bias": "True", 
        "num_filter": "32", 
        "pad": "(1, 1)", 
        "stride": "(1, 1)", 
        "workspace": "512"
      }, 
      "inputs": [[326, 0, 0], [327, 0, 0]]
    }, 
    {
      "op": "Concat", 
      "name": "DBstage2_concat12", 
      "attrs": {"num_args": "2"}, 
      "inputs": [[312, 0, 0], [328, 0, 0]]
    }, 
    {
      "op": "null", 
      "name": "TBstage2_bn1_gamma", 
      "attrs": {
        "eps": "2e-05", 
        "fix_gamma": "False", 
        "momentum": "0.9"
      }, 
      "inputs": []
    }, 
    {
      "op": "null", 
      "name": "TBstage2_bn1_beta", 
      "attrs": {
        "eps": "2e-05", 
        "fix_gamma": "False", 
        "momentum": "0.9"
      }, 
      "inputs": []
    }, 
    {
      "op": "null", 
      "name": "TBstage2_bn1_moving_mean", 
      "attrs": {
        "__init__": "[\"zero\", {}]", 
        "eps": "2e-05", 
        "fix_gamma": "False", 
        "momentum": "0.9"
      }, 
      "inputs": []
    }, 
    {
      "op": "null", 
      "name": "TBstage2_bn1_moving_var", 
      "attrs": {
        "__init__": "[\"one\", {}]", 
        "eps": "2e-05", 
        "fix_gamma": "False", 
        "momentum": "0.9"
      }, 
      "inputs": []
    }, 
    {
      "op": "BatchNorm", 
      "name": "TBstage2_bn1", 
      "attrs": {
        "eps": "2e-05", 
        "fix_gamma": "False", 
        "momentum": "0.9"
      }, 
      "inputs": [[329, 0, 0], [330, 0, 0], [331, 0, 0], [332, 0, 1], [333, 0, 1]]
    }, 
    {
      "op": "Activation", 
      "name": "TBstage2_relu1", 
      "attrs": {"act_type": "relu"}, 
      "inputs": [[334, 0, 0]]
    }, 
    {
      "op": "null", 
      "name": "TBstage2_conv1_weight", 
      "attrs": {
        "kernel": "(1, 1)", 
        "no_bias": "True", 
        "num_filter": "256", 
        "pad": "(0, 0)", 
        "stride": "(1, 1)", 
        "workspace": "512"
      }, 
      "inputs": []
    }, 
    {
      "op": "Convolution", 
      "name": "TBstage2_conv1", 
      "attrs": {
        "kernel": "(1, 1)", 
        "no_bias": "True", 
        "num_filter": "256", 
        "pad": "(0, 0)", 
        "stride": "(1, 1)", 
        "workspace": "512"
      }, 
      "inputs": [[335, 0, 0], [336, 0, 0]]
    }, 
    {
      "op": "Pooling", 
      "name": "TBstage2_pool2", 
      "attrs": {
        "global_pool": "False", 
        "kernel": "(2, 2)", 
        "pool_type": "avg", 
        "stride": "(2, 2)"
      }, 
      "inputs": [[337, 0, 0]]
    }, 
    {
      "op": "null", 
      "name": "DBstage3_unit1_bn1_gamma", 
      "attrs": {
        "eps": "2e-05", 
        "fix_gamma": "False", 
        "momentum": "0.9"
      }, 
      "inputs": []
    }, 
    {
      "op": "null", 
      "name": "DBstage3_unit1_bn1_beta", 
      "attrs": {
        "eps": "2e-05", 
        "fix_gamma": "False", 
        "momentum": "0.9"
      }, 
      "inputs": []
    }, 
    {
      "op": "null", 
      "name": "DBstage3_unit1_bn1_moving_mean", 
      "attrs": {
        "__init__": "[\"zero\", {}]", 
        "eps": "2e-05", 
        "fix_gamma": "False", 
        "momentum": "0.9"
      }, 
      "inputs": []
    }, 
    {
      "op": "null", 
      "name": "DBstage3_unit1_bn1_moving_var", 
      "attrs": {
        "__init__": "[\"one\", {}]", 
        "eps": "2e-05", 
        "fix_gamma": "False", 
        "momentum": "0.9"
      }, 
      "inputs": []
    }, 
    {
      "op": "BatchNorm", 
      "name": "DBstage3_unit1_bn1", 
      "attrs": {
        "eps": "2e-05", 
        "fix_gamma": "False", 
        "momentum": "0.9"
      }, 
      "inputs": [[338, 0, 0], [339, 0, 0], [340, 0, 0], [341, 0, 1], [342, 0, 1]]
    }, 
    {
      "op": "Activation", 
      "name": "DBstage3_unit1_relu1", 
      "attrs": {"act_type": "relu"}, 
      "inputs": [[343, 0, 0]]
    }, 
    {
      "op": "null", 
      "name": "DBstage3_unit1_conv1_weight", 
      "attrs": {
        "kernel": "(1, 1)", 
        "no_bias": "True", 
        "num_filter": "128", 
        "pad": "(0, 0)", 
        "stride": "(1, 1)", 
        "workspace": "512"
      }, 
      "inputs": []
    }, 
    {
      "op": "Convolution", 
      "name": "DBstage3_unit1_conv1", 
      "attrs": {
        "kernel": "(1, 1)", 
        "no_bias": "True", 
        "num_filter": "128", 
        "pad": "(0, 0)", 
        "stride": "(1, 1)", 
        "workspace": "512"
      }, 
      "inputs": [[344, 0, 0], [345, 0, 0]]
    }, 
    {
      "op": "null", 
      "name": "DBstage3_unit1_bn2_gamma", 
      "attrs": {
        "eps": "2e-05", 
        "fix_gamma": "False", 
        "momentum": "0.9"
      }, 
      "inputs": []
    }, 
    {
      "op": "null", 
      "name": "DBstage3_unit1_bn2_beta", 
      "attrs": {
        "eps": "2e-05", 
        "fix_gamma": "False", 
        "momentum": "0.9"
      }, 
      "inputs": []
    }, 
    {
      "op": "null", 
      "name": "DBstage3_unit1_bn2_moving_mean", 
      "attrs": {
        "__init__": "[\"zero\", {}]", 
        "eps": "2e-05", 
        "fix_gamma": "False", 
        "momentum": "0.9"
      }, 
      "inputs": []
    }, 
    {
      "op": "null", 
      "name": "DBstage3_unit1_bn2_moving_var", 
      "attrs": {
        "__init__": "[\"one\", {}]", 
        "eps": "2e-05", 
        "fix_gamma": "False", 
        "momentum": "0.9"
      }, 
      "inputs": []
    }, 
    {
      "op": "BatchNorm", 
      "name": "DBstage3_unit1_bn2", 
      "attrs": {
        "eps": "2e-05", 
        "fix_gamma": "False", 
        "momentum": "0.9"
      }, 
      "inputs": [[346, 0, 0], [347, 0, 0], [348, 0, 0], [349, 0, 1], [350, 0, 1]]
    }, 
    {
      "op": "Activation", 
      "name": "DBstage3_unit1_relu2", 
      "attrs": {"act_type": "relu"}, 
      "inputs": [[351, 0, 0]]
    }, 
    {
      "op": "null", 
      "name": "DBstage3_unit1_conv2_weight", 
      "attrs": {
        "kernel": "(3, 3)", 
        "no_bias": "True", 
        "num_filter": "32", 
        "pad": "(1, 1)", 
        "stride": "(1, 1)", 
        "workspace": "512"
      }, 
      "inputs": []
    }, 
    {
      "op": "Convolution", 
      "name": "DBstage3_unit1_conv2", 
      "attrs": {
        "kernel": "(3, 3)", 
        "no_bias": "True", 
        "num_filter": "32", 
        "pad": "(1, 1)", 
        "stride": "(1, 1)", 
        "workspace": "512"
      }, 
      "inputs": [[352, 0, 0], [353, 0, 0]]
    }, 
    {
      "op": "Concat", 
      "name": "DBstage3_concat1", 
      "attrs": {"num_args": "2"}, 
      "inputs": [[338, 0, 0], [354, 0, 0]]
    }, 
    {
      "op": "null", 
      "name": "DBstage3_unit2_bn1_gamma", 
      "attrs": {
        "eps": "2e-05", 
        "fix_gamma": "False", 
        "momentum": "0.9"
      }, 
      "inputs": []
    }, 
    {
      "op": "null", 
      "name": "DBstage3_unit2_bn1_beta", 
      "attrs": {
        "eps": "2e-05", 
        "fix_gamma": "False", 
        "momentum": "0.9"
      }, 
      "inputs": []
    }, 
    {
      "op": "null", 
      "name": "DBstage3_unit2_bn1_moving_mean", 
      "attrs": {
        "__init__": "[\"zero\", {}]", 
        "eps": "2e-05", 
        "fix_gamma": "False", 
        "momentum": "0.9"
      }, 
      "inputs": []
    }, 
    {
      "op": "null", 
      "name": "DBstage3_unit2_bn1_moving_var", 
      "attrs": {
        "__init__": "[\"one\", {}]", 
        "eps": "2e-05", 
        "fix_gamma": "False", 
        "momentum": "0.9"
      }, 
      "inputs": []
    }, 
    {
      "op": "BatchNorm", 
      "name": "DBstage3_unit2_bn1", 
      "attrs": {
        "eps": "2e-05", 
        "fix_gamma": "False", 
        "momentum": "0.9"
      }, 
      "inputs": [[355, 0, 0], [356, 0, 0], [357, 0, 0], [358, 0, 1], [359, 0, 1]]
    }, 
    {
      "op": "Activation", 
      "name": "DBstage3_unit2_relu1", 
      "attrs": {"act_type": "relu"}, 
      "inputs": [[360, 0, 0]]
    }, 
    {
      "op": "null", 
      "name": "DBstage3_unit2_conv1_weight", 
      "attrs": {
        "kernel": "(1, 1)", 
        "no_bias": "True", 
        "num_filter": "128", 
        "pad": "(0, 0)", 
        "stride": "(1, 1)", 
        "workspace": "512"
      }, 
      "inputs": []
    }, 
    {
      "op": "Convolution", 
      "name": "DBstage3_unit2_conv1", 
      "attrs": {
        "kernel": "(1, 1)", 
        "no_bias": "True", 
        "num_filter": "128", 
        "pad": "(0, 0)", 
        "stride": "(1, 1)", 
        "workspace": "512"
      }, 
      "inputs": [[361, 0, 0], [362, 0, 0]]
    }, 
    {
      "op": "null", 
      "name": "DBstage3_unit2_bn2_gamma", 
      "attrs": {
        "eps": "2e-05", 
        "fix_gamma": "False", 
        "momentum": "0.9"
      }, 
      "inputs": []
    }, 
    {
      "op": "null", 
      "name": "DBstage3_unit2_bn2_beta", 
      "attrs": {
        "eps": "2e-05", 
        "fix_gamma": "False", 
        "momentum": "0.9"
      }, 
      "inputs": []
    }, 
    {
      "op": "null", 
      "name": "DBstage3_unit2_bn2_moving_mean", 
      "attrs": {
        "__init__": "[\"zero\", {}]", 
        "eps": "2e-05", 
        "fix_gamma": "False", 
        "momentum": "0.9"
      }, 
      "inputs": []
    }, 
    {
      "op": "null", 
      "name": "DBstage3_unit2_bn2_moving_var", 
      "attrs": {
        "__init__": "[\"one\", {}]", 
        "eps": "2e-05", 
        "fix_gamma": "False", 
        "momentum": "0.9"
      }, 
      "inputs": []
    }, 
    {
      "op": "BatchNorm", 
      "name": "DBstage3_unit2_bn2", 
      "attrs": {
        "eps": "2e-05", 
        "fix_gamma": "False", 
        "momentum": "0.9"
      }, 
      "inputs": [[363, 0, 0], [364, 0, 0], [365, 0, 0], [366, 0, 1], [367, 0, 1]]
    }, 
    {
      "op": "Activation", 
      "name": "DBstage3_unit2_relu2", 
      "attrs": {"act_type": "relu"}, 
      "inputs": [[368, 0, 0]]
    }, 
    {
      "op": "null", 
      "name": "DBstage3_unit2_conv2_weight", 
      "attrs": {
        "kernel": "(3, 3)", 
        "no_bias": "True", 
        "num_filter": "32", 
        "pad": "(1, 1)", 
        "stride": "(1, 1)", 
        "workspace": "512"
      }, 
      "inputs": []
    }, 
    {
      "op": "Convolution", 
      "name": "DBstage3_unit2_conv2", 
      "attrs": {
        "kernel": "(3, 3)", 
        "no_bias": "True", 
        "num_filter": "32", 
        "pad": "(1, 1)", 
        "stride": "(1, 1)", 
        "workspace": "512"
      }, 
      "inputs": [[369, 0, 0], [370, 0, 0]]
    }, 
    {
      "op": "Concat", 
      "name": "DBstage3_concat2", 
      "attrs": {"num_args": "2"}, 
      "inputs": [[355, 0, 0], [371, 0, 0]]
    }, 
    {
      "op": "null", 
      "name": "DBstage3_unit3_bn1_gamma", 
      "attrs": {
        "eps": "2e-05", 
        "fix_gamma": "False", 
        "momentum": "0.9"
      }, 
      "inputs": []
    }, 
    {
      "op": "null", 
      "name": "DBstage3_unit3_bn1_beta", 
      "attrs": {
        "eps": "2e-05", 
        "fix_gamma": "False", 
        "momentum": "0.9"
      }, 
      "inputs": []
    }, 
    {
      "op": "null", 
      "name": "DBstage3_unit3_bn1_moving_mean", 
      "attrs": {
        "__init__": "[\"zero\", {}]", 
        "eps": "2e-05", 
        "fix_gamma": "False", 
        "momentum": "0.9"
      }, 
      "inputs": []
    }, 
    {
      "op": "null", 
      "name": "DBstage3_unit3_bn1_moving_var", 
      "attrs": {
        "__init__": "[\"one\", {}]", 
        "eps": "2e-05", 
        "fix_gamma": "False", 
        "momentum": "0.9"
      }, 
      "inputs": []
    }, 
    {
      "op": "BatchNorm", 
      "name": "DBstage3_unit3_bn1", 
      "attrs": {
        "eps": "2e-05", 
        "fix_gamma": "False", 
        "momentum": "0.9"
      }, 
      "inputs": [[372, 0, 0], [373, 0, 0], [374, 0, 0], [375, 0, 1], [376, 0, 1]]
    }, 
    {
      "op": "Activation", 
      "name": "DBstage3_unit3_relu1", 
      "attrs": {"act_type": "relu"}, 
      "inputs": [[377, 0, 0]]
    }, 
    {
      "op": "null", 
      "name": "DBstage3_unit3_conv1_weight", 
      "attrs": {
        "kernel": "(1, 1)", 
        "no_bias": "True", 
        "num_filter": "128", 
        "pad": "(0, 0)", 
        "stride": "(1, 1)", 
        "workspace": "512"
      }, 
      "inputs": []
    }, 
    {
      "op": "Convolution", 
      "name": "DBstage3_unit3_conv1", 
      "attrs": {
        "kernel": "(1, 1)", 
        "no_bias": "True", 
        "num_filter": "128", 
        "pad": "(0, 0)", 
        "stride": "(1, 1)", 
        "workspace": "512"
      }, 
      "inputs": [[378, 0, 0], [379, 0, 0]]
    }, 
    {
      "op": "null", 
      "name": "DBstage3_unit3_bn2_gamma", 
      "attrs": {
        "eps": "2e-05", 
        "fix_gamma": "False", 
        "momentum": "0.9"
      }, 
      "inputs": []
    }, 
    {
      "op": "null", 
      "name": "DBstage3_unit3_bn2_beta", 
      "attrs": {
        "eps": "2e-05", 
        "fix_gamma": "False", 
        "momentum": "0.9"
      }, 
      "inputs": []
    }, 
    {
      "op": "null", 
      "name": "DBstage3_unit3_bn2_moving_mean", 
      "attrs": {
        "__init__": "[\"zero\", {}]", 
        "eps": "2e-05", 
        "fix_gamma": "False", 
        "momentum": "0.9"
      }, 
      "inputs": []
    }, 
    {
      "op": "null", 
      "name": "DBstage3_unit3_bn2_moving_var", 
      "attrs": {
        "__init__": "[\"one\", {}]", 
        "eps": "2e-05", 
        "fix_gamma": "False", 
        "momentum": "0.9"
      }, 
      "inputs": []
    }, 
    {
      "op": "BatchNorm", 
      "name": "DBstage3_unit3_bn2", 
      "attrs": {
        "eps": "2e-05", 
        "fix_gamma": "False", 
        "momentum": "0.9"
      }, 
      "inputs": [[380, 0, 0], [381, 0, 0], [382, 0, 0], [383, 0, 1], [384, 0, 1]]
    }, 
    {
      "op": "Activation", 
      "name": "DBstage3_unit3_relu2", 
      "attrs": {"act_type": "relu"}, 
      "inputs": [[385, 0, 0]]
    }, 
    {
      "op": "null", 
      "name": "DBstage3_unit3_conv2_weight", 
      "attrs": {
        "kernel": "(3, 3)", 
        "no_bias": "True", 
        "num_filter": "32", 
        "pad": "(1, 1)", 
        "stride": "(1, 1)", 
        "workspace": "512"
      }, 
      "inputs": []
    }, 
    {
      "op": "Convolution", 
      "name": "DBstage3_unit3_conv2", 
      "attrs": {
        "kernel": "(3, 3)", 
        "no_bias": "True", 
        "num_filter": "32", 
        "pad": "(1, 1)", 
        "stride": "(1, 1)", 
        "workspace": "512"
      }, 
      "inputs": [[386, 0, 0], [387, 0, 0]]
    }, 
    {
      "op": "Concat", 
      "name": "DBstage3_concat3", 
      "attrs": {"num_args": "2"}, 
      "inputs": [[372, 0, 0], [388, 0, 0]]
    }, 
    {
      "op": "null", 
      "name": "DBstage3_unit4_bn1_gamma", 
      "attrs": {
        "eps": "2e-05", 
        "fix_gamma": "False", 
        "momentum": "0.9"
      }, 
      "inputs": []
    }, 
    {
      "op": "null", 
      "name": "DBstage3_unit4_bn1_beta", 
      "attrs": {
        "eps": "2e-05", 
        "fix_gamma": "False", 
        "momentum": "0.9"
      }, 
      "inputs": []
    }, 
    {
      "op": "null", 
      "name": "DBstage3_unit4_bn1_moving_mean", 
      "attrs": {
        "__init__": "[\"zero\", {}]", 
        "eps": "2e-05", 
        "fix_gamma": "False", 
        "momentum": "0.9"
      }, 
      "inputs": []
    }, 
    {
      "op": "null", 
      "name": "DBstage3_unit4_bn1_moving_var", 
      "attrs": {
        "__init__": "[\"one\", {}]", 
        "eps": "2e-05", 
        "fix_gamma": "False", 
        "momentum": "0.9"
      }, 
      "inputs": []
    }, 
    {
      "op": "BatchNorm", 
      "name": "DBstage3_unit4_bn1", 
      "attrs": {
        "eps": "2e-05", 
        "fix_gamma": "False", 
        "momentum": "0.9"
      }, 
      "inputs": [[389, 0, 0], [390, 0, 0], [391, 0, 0], [392, 0, 1], [393, 0, 1]]
    }, 
    {
      "op": "Activation", 
      "name": "DBstage3_unit4_relu1", 
      "attrs": {"act_type": "relu"}, 
      "inputs": [[394, 0, 0]]
    }, 
    {
      "op": "null", 
      "name": "DBstage3_unit4_conv1_weight", 
      "attrs": {
        "kernel": "(1, 1)", 
        "no_bias": "True", 
        "num_filter": "128", 
        "pad": "(0, 0)", 
        "stride": "(1, 1)", 
        "workspace": "512"
      }, 
      "inputs": []
    }, 
    {
      "op": "Convolution", 
      "name": "DBstage3_unit4_conv1", 
      "attrs": {
        "kernel": "(1, 1)", 
        "no_bias": "True", 
        "num_filter": "128", 
        "pad": "(0, 0)", 
        "stride": "(1, 1)", 
        "workspace": "512"
      }, 
      "inputs": [[395, 0, 0], [396, 0, 0]]
    }, 
    {
      "op": "null", 
      "name": "DBstage3_unit4_bn2_gamma", 
      "attrs": {
        "eps": "2e-05", 
        "fix_gamma": "False", 
        "momentum": "0.9"
      }, 
      "inputs": []
    }, 
    {
      "op": "null", 
      "name": "DBstage3_unit4_bn2_beta", 
      "attrs": {
        "eps": "2e-05", 
        "fix_gamma": "False", 
        "momentum": "0.9"
      }, 
      "inputs": []
    }, 
    {
      "op": "null", 
      "name": "DBstage3_unit4_bn2_moving_mean", 
      "attrs": {
        "__init__": "[\"zero\", {}]", 
        "eps": "2e-05", 
        "fix_gamma": "False", 
        "momentum": "0.9"
      }, 
      "inputs": []
    }, 
    {
      "op": "null", 
      "name": "DBstage3_unit4_bn2_moving_var", 
      "attrs": {
        "__init__": "[\"one\", {}]", 
        "eps": "2e-05", 
        "fix_gamma": "False", 
        "momentum": "0.9"
      }, 
      "inputs": []
    }, 
    {
      "op": "BatchNorm", 
      "name": "DBstage3_unit4_bn2", 
      "attrs": {
        "eps": "2e-05", 
        "fix_gamma": "False", 
        "momentum": "0.9"
      }, 
      "inputs": [[397, 0, 0], [398, 0, 0], [399, 0, 0], [400, 0, 1], [401, 0, 1]]
    }, 
    {
      "op": "Activation", 
      "name": "DBstage3_unit4_relu2", 
      "attrs": {"act_type": "relu"}, 
      "inputs": [[402, 0, 0]]
    }, 
    {
      "op": "null", 
      "name": "DBstage3_unit4_conv2_weight", 
      "attrs": {
        "kernel": "(3, 3)", 
        "no_bias": "True", 
        "num_filter": "32", 
        "pad": "(1, 1)", 
        "stride": "(1, 1)", 
        "workspace": "512"
      }, 
      "inputs": []
    }, 
    {
      "op": "Convolution", 
      "name": "DBstage3_unit4_conv2", 
      "attrs": {
        "kernel": "(3, 3)", 
        "no_bias": "True", 
        "num_filter": "32", 
        "pad": "(1, 1)", 
        "stride": "(1, 1)", 
        "workspace": "512"
      }, 
      "inputs": [[403, 0, 0], [404, 0, 0]]
    }, 
    {
      "op": "Concat", 
      "name": "DBstage3_concat4", 
      "attrs": {"num_args": "2"}, 
      "inputs": [[389, 0, 0], [405, 0, 0]]
    }, 
    {
      "op": "null", 
      "name": "DBstage3_unit5_bn1_gamma", 
      "attrs": {
        "eps": "2e-05", 
        "fix_gamma": "False", 
        "momentum": "0.9"
      }, 
      "inputs": []
    }, 
    {
      "op": "null", 
      "name": "DBstage3_unit5_bn1_beta", 
      "attrs": {
        "eps": "2e-05", 
        "fix_gamma": "False", 
        "momentum": "0.9"
      }, 
      "inputs": []
    }, 
    {
      "op": "null", 
      "name": "DBstage3_unit5_bn1_moving_mean", 
      "attrs": {
        "__init__": "[\"zero\", {}]", 
        "eps": "2e-05", 
        "fix_gamma": "False", 
        "momentum": "0.9"
      }, 
      "inputs": []
    }, 
    {
      "op": "null", 
      "name": "DBstage3_unit5_bn1_moving_var", 
      "attrs": {
        "__init__": "[\"one\", {}]", 
        "eps": "2e-05", 
        "fix_gamma": "False", 
        "momentum": "0.9"
      }, 
      "inputs": []
    }, 
    {
      "op": "BatchNorm", 
      "name": "DBstage3_unit5_bn1", 
      "attrs": {
        "eps": "2e-05", 
        "fix_gamma": "False", 
        "momentum": "0.9"
      }, 
      "inputs": [[406, 0, 0], [407, 0, 0], [408, 0, 0], [409, 0, 1], [410, 0, 1]]
    }, 
    {
      "op": "Activation", 
      "name": "DBstage3_unit5_relu1", 
      "attrs": {"act_type": "relu"}, 
      "inputs": [[411, 0, 0]]
    }, 
    {
      "op": "null", 
      "name": "DBstage3_unit5_conv1_weight", 
      "attrs": {
        "kernel": "(1, 1)", 
        "no_bias": "True", 
        "num_filter": "128", 
        "pad": "(0, 0)", 
        "stride": "(1, 1)", 
        "workspace": "512"
      }, 
      "inputs": []
    }, 
    {
      "op": "Convolution", 
      "name": "DBstage3_unit5_conv1", 
      "attrs": {
        "kernel": "(1, 1)", 
        "no_bias": "True", 
        "num_filter": "128", 
        "pad": "(0, 0)", 
        "stride": "(1, 1)", 
        "workspace": "512"
      }, 
      "inputs": [[412, 0, 0], [413, 0, 0]]
    }, 
    {
      "op": "null", 
      "name": "DBstage3_unit5_bn2_gamma", 
      "attrs": {
        "eps": "2e-05", 
        "fix_gamma": "False", 
        "momentum": "0.9"
      }, 
      "inputs": []
    }, 
    {
      "op": "null", 
      "name": "DBstage3_unit5_bn2_beta", 
      "attrs": {
        "eps": "2e-05", 
        "fix_gamma": "False", 
        "momentum": "0.9"
      }, 
      "inputs": []
    }, 
    {
      "op": "null", 
      "name": "DBstage3_unit5_bn2_moving_mean", 
      "attrs": {
        "__init__": "[\"zero\", {}]", 
        "eps": "2e-05", 
        "fix_gamma": "False", 
        "momentum": "0.9"
      }, 
      "inputs": []
    }, 
    {
      "op": "null", 
      "name": "DBstage3_unit5_bn2_moving_var", 
      "attrs": {
        "__init__": "[\"one\", {}]", 
        "eps": "2e-05", 
        "fix_gamma": "False", 
        "momentum": "0.9"
      }, 
      "inputs": []
    }, 
    {
      "op": "BatchNorm", 
      "name": "DBstage3_unit5_bn2", 
      "attrs": {
        "eps": "2e-05", 
        "fix_gamma": "False", 
        "momentum": "0.9"
      }, 
      "inputs": [[414, 0, 0], [415, 0, 0], [416, 0, 0], [417, 0, 1], [418, 0, 1]]
    }, 
    {
      "op": "Activation", 
      "name": "DBstage3_unit5_relu2", 
      "attrs": {"act_type": "relu"}, 
      "inputs": [[419, 0, 0]]
    }, 
    {
      "op": "null", 
      "name": "DBstage3_unit5_conv2_weight", 
      "attrs": {
        "kernel": "(3, 3)", 
        "no_bias": "True", 
        "num_filter": "32", 
        "pad": "(1, 1)", 
        "stride": "(1, 1)", 
        "workspace": "512"
      }, 
      "inputs": []
    }, 
    {
      "op": "Convolution", 
      "name": "DBstage3_unit5_conv2", 
      "attrs": {
        "kernel": "(3, 3)", 
        "no_bias": "True", 
        "num_filter": "32", 
        "pad": "(1, 1)", 
        "stride": "(1, 1)", 
        "workspace": "512"
      }, 
      "inputs": [[420, 0, 0], [421, 0, 0]]
    }, 
    {
      "op": "Concat", 
      "name": "DBstage3_concat5", 
      "attrs": {"num_args": "2"}, 
      "inputs": [[406, 0, 0], [422, 0, 0]]
    }, 
    {
      "op": "null", 
      "name": "DBstage3_unit6_bn1_gamma", 
      "attrs": {
        "eps": "2e-05", 
        "fix_gamma": "False", 
        "momentum": "0.9"
      }, 
      "inputs": []
    }, 
    {
      "op": "null", 
      "name": "DBstage3_unit6_bn1_beta", 
      "attrs": {
        "eps": "2e-05", 
        "fix_gamma": "False", 
        "momentum": "0.9"
      }, 
      "inputs": []
    }, 
    {
      "op": "null", 
      "name": "DBstage3_unit6_bn1_moving_mean", 
      "attrs": {
        "__init__": "[\"zero\", {}]", 
        "eps": "2e-05", 
        "fix_gamma": "False", 
        "momentum": "0.9"
      }, 
      "inputs": []
    }, 
    {
      "op": "null", 
      "name": "DBstage3_unit6_bn1_moving_var", 
      "attrs": {
        "__init__": "[\"one\", {}]", 
        "eps": "2e-05", 
        "fix_gamma": "False", 
        "momentum": "0.9"
      }, 
      "inputs": []
    }, 
    {
      "op": "BatchNorm", 
      "name": "DBstage3_unit6_bn1", 
      "attrs": {
        "eps": "2e-05", 
        "fix_gamma": "False", 
        "momentum": "0.9"
      }, 
      "inputs": [[423, 0, 0], [424, 0, 0], [425, 0, 0], [426, 0, 1], [427, 0, 1]]
    }, 
    {
      "op": "Activation", 
      "name": "DBstage3_unit6_relu1", 
      "attrs": {"act_type": "relu"}, 
      "inputs": [[428, 0, 0]]
    }, 
    {
      "op": "null", 
      "name": "DBstage3_unit6_conv1_weight", 
      "attrs": {
        "kernel": "(1, 1)", 
        "no_bias": "True", 
        "num_filter": "128", 
        "pad": "(0, 0)", 
        "stride": "(1, 1)", 
        "workspace": "512"
      }, 
      "inputs": []
    }, 
    {
      "op": "Convolution", 
      "name": "DBstage3_unit6_conv1", 
      "attrs": {
        "kernel": "(1, 1)", 
        "no_bias": "True", 
        "num_filter": "128", 
        "pad": "(0, 0)", 
        "stride": "(1, 1)", 
        "workspace": "512"
      }, 
      "inputs": [[429, 0, 0], [430, 0, 0]]
    }, 
    {
      "op": "null", 
      "name": "DBstage3_unit6_bn2_gamma", 
      "attrs": {
        "eps": "2e-05", 
        "fix_gamma": "False", 
        "momentum": "0.9"
      }, 
      "inputs": []
    }, 
    {
      "op": "null", 
      "name": "DBstage3_unit6_bn2_beta", 
      "attrs": {
        "eps": "2e-05", 
        "fix_gamma": "False", 
        "momentum": "0.9"
      }, 
      "inputs": []
    }, 
    {
      "op": "null", 
      "name": "DBstage3_unit6_bn2_moving_mean", 
      "attrs": {
        "__init__": "[\"zero\", {}]", 
        "eps": "2e-05", 
        "fix_gamma": "False", 
        "momentum": "0.9"
      }, 
      "inputs": []
    }, 
    {
      "op": "null", 
      "name": "DBstage3_unit6_bn2_moving_var", 
      "attrs": {
        "__init__": "[\"one\", {}]", 
        "eps": "2e-05", 
        "fix_gamma": "False", 
        "momentum": "0.9"
      }, 
      "inputs": []
    }, 
    {
      "op": "BatchNorm", 
      "name": "DBstage3_unit6_bn2", 
      "attrs": {
        "eps": "2e-05", 
        "fix_gamma": "False", 
        "momentum": "0.9"
      }, 
      "inputs": [[431, 0, 0], [432, 0, 0], [433, 0, 0], [434, 0, 1], [435, 0, 1]]
    }, 
    {
      "op": "Activation", 
      "name": "DBstage3_unit6_relu2", 
      "attrs": {"act_type": "relu"}, 
      "inputs": [[436, 0, 0]]
    }, 
    {
      "op": "null", 
      "name": "DBstage3_unit6_conv2_weight", 
      "attrs": {
        "kernel": "(3, 3)", 
        "no_bias": "True", 
        "num_filter": "32", 
        "pad": "(1, 1)", 
        "stride": "(1, 1)", 
        "workspace": "512"
      }, 
      "inputs": []
    }, 
    {
      "op": "Convolution", 
      "name": "DBstage3_unit6_conv2", 
      "attrs": {
        "kernel": "(3, 3)", 
        "no_bias": "True", 
        "num_filter": "32", 
        "pad": "(1, 1)", 
        "stride": "(1, 1)", 
        "workspace": "512"
      }, 
      "inputs": [[437, 0, 0], [438, 0, 0]]
    }, 
    {
      "op": "Concat", 
      "name": "DBstage3_concat6", 
      "attrs": {"num_args": "2"}, 
      "inputs": [[423, 0, 0], [439, 0, 0]]
    }, 
    {
      "op": "null", 
      "name": "DBstage3_unit7_bn1_gamma", 
      "attrs": {
        "eps": "2e-05", 
        "fix_gamma": "False", 
        "momentum": "0.9"
      }, 
      "inputs": []
    }, 
    {
      "op": "null", 
      "name": "DBstage3_unit7_bn1_beta", 
      "attrs": {
        "eps": "2e-05", 
        "fix_gamma": "False", 
        "momentum": "0.9"
      }, 
      "inputs": []
    }, 
    {
      "op": "null", 
      "name": "DBstage3_unit7_bn1_moving_mean", 
      "attrs": {
        "__init__": "[\"zero\", {}]", 
        "eps": "2e-05", 
        "fix_gamma": "False", 
        "momentum": "0.9"
      }, 
      "inputs": []
    }, 
    {
      "op": "null", 
      "name": "DBstage3_unit7_bn1_moving_var", 
      "attrs": {
        "__init__": "[\"one\", {}]", 
        "eps": "2e-05", 
        "fix_gamma": "False", 
        "momentum": "0.9"
      }, 
      "inputs": []
    }, 
    {
      "op": "BatchNorm", 
      "name": "DBstage3_unit7_bn1", 
      "attrs": {
        "eps": "2e-05", 
        "fix_gamma": "False", 
        "momentum": "0.9"
      }, 
      "inputs": [[440, 0, 0], [441, 0, 0], [442, 0, 0], [443, 0, 1], [444, 0, 1]]
    }, 
    {
      "op": "Activation", 
      "name": "DBstage3_unit7_relu1", 
      "attrs": {"act_type": "relu"}, 
      "inputs": [[445, 0, 0]]
    }, 
    {
      "op": "null", 
      "name": "DBstage3_unit7_conv1_weight", 
      "attrs": {
        "kernel": "(1, 1)", 
        "no_bias": "True", 
        "num_filter": "128", 
        "pad": "(0, 0)", 
        "stride": "(1, 1)", 
        "workspace": "512"
      }, 
      "inputs": []
    }, 
    {
      "op": "Convolution", 
      "name": "DBstage3_unit7_conv1", 
      "attrs": {
        "kernel": "(1, 1)", 
        "no_bias": "True", 
        "num_filter": "128", 
        "pad": "(0, 0)", 
        "stride": "(1, 1)", 
        "workspace": "512"
      }, 
      "inputs": [[446, 0, 0], [447, 0, 0]]
    }, 
    {
      "op": "null", 
      "name": "DBstage3_unit7_bn2_gamma", 
      "attrs": {
        "eps": "2e-05", 
        "fix_gamma": "False", 
        "momentum": "0.9"
      }, 
      "inputs": []
    }, 
    {
      "op": "null", 
      "name": "DBstage3_unit7_bn2_beta", 
      "attrs": {
        "eps": "2e-05", 
        "fix_gamma": "False", 
        "momentum": "0.9"
      }, 
      "inputs": []
    }, 
    {
      "op": "null", 
      "name": "DBstage3_unit7_bn2_moving_mean", 
      "attrs": {
        "__init__": "[\"zero\", {}]", 
        "eps": "2e-05", 
        "fix_gamma": "False", 
        "momentum": "0.9"
      }, 
      "inputs": []
    }, 
    {
      "op": "null", 
      "name": "DBstage3_unit7_bn2_moving_var", 
      "attrs": {
        "__init__": "[\"one\", {}]", 
        "eps": "2e-05", 
        "fix_gamma": "False", 
        "momentum": "0.9"
      }, 
      "inputs": []
    }, 
    {
      "op": "BatchNorm", 
      "name": "DBstage3_unit7_bn2", 
      "attrs": {
        "eps": "2e-05", 
        "fix_gamma": "False", 
        "momentum": "0.9"
      }, 
      "inputs": [[448, 0, 0], [449, 0, 0], [450, 0, 0], [451, 0, 1], [452, 0, 1]]
    }, 
    {
      "op": "Activation", 
      "name": "DBstage3_unit7_relu2", 
      "attrs": {"act_type": "relu"}, 
      "inputs": [[453, 0, 0]]
    }, 
    {
      "op": "null", 
      "name": "DBstage3_unit7_conv2_weight", 
      "attrs": {
        "kernel": "(3, 3)", 
        "no_bias": "True", 
        "num_filter": "32", 
        "pad": "(1, 1)", 
        "stride": "(1, 1)", 
        "workspace": "512"
      }, 
      "inputs": []
    }, 
    {
      "op": "Convolution", 
      "name": "DBstage3_unit7_conv2", 
      "attrs": {
        "kernel": "(3, 3)", 
        "no_bias": "True", 
        "num_filter": "32", 
        "pad": "(1, 1)", 
        "stride": "(1, 1)", 
        "workspace": "512"
      }, 
      "inputs": [[454, 0, 0], [455, 0, 0]]
    }, 
    {
      "op": "Concat", 
      "name": "DBstage3_concat7", 
      "attrs": {"num_args": "2"}, 
      "inputs": [[440, 0, 0], [456, 0, 0]]
    }, 
    {
      "op": "null", 
      "name": "DBstage3_unit8_bn1_gamma", 
      "attrs": {
        "eps": "2e-05", 
        "fix_gamma": "False", 
        "momentum": "0.9"
      }, 
      "inputs": []
    }, 
    {
      "op": "null", 
      "name": "DBstage3_unit8_bn1_beta", 
      "attrs": {
        "eps": "2e-05", 
        "fix_gamma": "False", 
        "momentum": "0.9"
      }, 
      "inputs": []
    }, 
    {
      "op": "null", 
      "name": "DBstage3_unit8_bn1_moving_mean", 
      "attrs": {
        "__init__": "[\"zero\", {}]", 
        "eps": "2e-05", 
        "fix_gamma": "False", 
        "momentum": "0.9"
      }, 
      "inputs": []
    }, 
    {
      "op": "null", 
      "name": "DBstage3_unit8_bn1_moving_var", 
      "attrs": {
        "__init__": "[\"one\", {}]", 
        "eps": "2e-05", 
        "fix_gamma": "False", 
        "momentum": "0.9"
      }, 
      "inputs": []
    }, 
    {
      "op": "BatchNorm", 
      "name": "DBstage3_unit8_bn1", 
      "attrs": {
        "eps": "2e-05", 
        "fix_gamma": "False", 
        "momentum": "0.9"
      }, 
      "inputs": [[457, 0, 0], [458, 0, 0], [459, 0, 0], [460, 0, 1], [461, 0, 1]]
    }, 
    {
      "op": "Activation", 
      "name": "DBstage3_unit8_relu1", 
      "attrs": {"act_type": "relu"}, 
      "inputs": [[462, 0, 0]]
    }, 
    {
      "op": "null", 
      "name": "DBstage3_unit8_conv1_weight", 
      "attrs": {
        "kernel": "(1, 1)", 
        "no_bias": "True", 
        "num_filter": "128", 
        "pad": "(0, 0)", 
        "stride": "(1, 1)", 
        "workspace": "512"
      }, 
      "inputs": []
    }, 
    {
      "op": "Convolution", 
      "name": "DBstage3_unit8_conv1", 
      "attrs": {
        "kernel": "(1, 1)", 
        "no_bias": "True", 
        "num_filter": "128", 
        "pad": "(0, 0)", 
        "stride": "(1, 1)", 
        "workspace": "512"
      }, 
      "inputs": [[463, 0, 0], [464, 0, 0]]
    }, 
    {
      "op": "null", 
      "name": "DBstage3_unit8_bn2_gamma", 
      "attrs": {
        "eps": "2e-05", 
        "fix_gamma": "False", 
        "momentum": "0.9"
      }, 
      "inputs": []
    }, 
    {
      "op": "null", 
      "name": "DBstage3_unit8_bn2_beta", 
      "attrs": {
        "eps": "2e-05", 
        "fix_gamma": "False", 
        "momentum": "0.9"
      }, 
      "inputs": []
    }, 
    {
      "op": "null", 
      "name": "DBstage3_unit8_bn2_moving_mean", 
      "attrs": {
        "__init__": "[\"zero\", {}]", 
        "eps": "2e-05", 
        "fix_gamma": "False", 
        "momentum": "0.9"
      }, 
      "inputs": []
    }, 
    {
      "op": "null", 
      "name": "DBstage3_unit8_bn2_moving_var", 
      "attrs": {
        "__init__": "[\"one\", {}]", 
        "eps": "2e-05", 
        "fix_gamma": "False", 
        "momentum": "0.9"
      }, 
      "inputs": []
    }, 
    {
      "op": "BatchNorm", 
      "name": "DBstage3_unit8_bn2", 
      "attrs": {
        "eps": "2e-05", 
        "fix_gamma": "False", 
        "momentum": "0.9"
      }, 
      "inputs": [[465, 0, 0], [466, 0, 0], [467, 0, 0], [468, 0, 1], [469, 0, 1]]
    }, 
    {
      "op": "Activation", 
      "name": "DBstage3_unit8_relu2", 
      "attrs": {"act_type": "relu"}, 
      "inputs": [[470, 0, 0]]
    }, 
    {
      "op": "null", 
      "name": "DBstage3_unit8_conv2_weight", 
      "attrs": {
        "kernel": "(3, 3)", 
        "no_bias": "True", 
        "num_filter": "32", 
        "pad": "(1, 1)", 
        "stride": "(1, 1)", 
        "workspace": "512"
      }, 
      "inputs": []
    }, 
    {
      "op": "Convolution", 
      "name": "DBstage3_unit8_conv2", 
      "attrs": {
        "kernel": "(3, 3)", 
        "no_bias": "True", 
        "num_filter": "32", 
        "pad": "(1, 1)", 
        "stride": "(1, 1)", 
        "workspace": "512"
      }, 
      "inputs": [[471, 0, 0], [472, 0, 0]]
    }, 
    {
      "op": "Concat", 
      "name": "DBstage3_concat8", 
      "attrs": {"num_args": "2"}, 
      "inputs": [[457, 0, 0], [473, 0, 0]]
    }, 
    {
      "op": "null", 
      "name": "DBstage3_unit9_bn1_gamma", 
      "attrs": {
        "eps": "2e-05", 
        "fix_gamma": "False", 
        "momentum": "0.9"
      }, 
      "inputs": []
    }, 
    {
      "op": "null", 
      "name": "DBstage3_unit9_bn1_beta", 
      "attrs": {
        "eps": "2e-05", 
        "fix_gamma": "False", 
        "momentum": "0.9"
      }, 
      "inputs": []
    }, 
    {
      "op": "null", 
      "name": "DBstage3_unit9_bn1_moving_mean", 
      "attrs": {
        "__init__": "[\"zero\", {}]", 
        "eps": "2e-05", 
        "fix_gamma": "False", 
        "momentum": "0.9"
      }, 
      "inputs": []
    }, 
    {
      "op": "null", 
      "name": "DBstage3_unit9_bn1_moving_var", 
      "attrs": {
        "__init__": "[\"one\", {}]", 
        "eps": "2e-05", 
        "fix_gamma": "False", 
        "momentum": "0.9"
      }, 
      "inputs": []
    }, 
    {
      "op": "BatchNorm", 
      "name": "DBstage3_unit9_bn1", 
      "attrs": {
        "eps": "2e-05", 
        "fix_gamma": "False", 
        "momentum": "0.9"
      }, 
      "inputs": [[474, 0, 0], [475, 0, 0], [476, 0, 0], [477, 0, 1], [478, 0, 1]]
    }, 
    {
      "op": "Activation", 
      "name": "DBstage3_unit9_relu1", 
      "attrs": {"act_type": "relu"}, 
      "inputs": [[479, 0, 0]]
    }, 
    {
      "op": "null", 
      "name": "DBstage3_unit9_conv1_weight", 
      "attrs": {
        "kernel": "(1, 1)", 
        "no_bias": "True", 
        "num_filter": "128", 
        "pad": "(0, 0)", 
        "stride": "(1, 1)", 
        "workspace": "512"
      }, 
      "inputs": []
    }, 
    {
      "op": "Convolution", 
      "name": "DBstage3_unit9_conv1", 
      "attrs": {
        "kernel": "(1, 1)", 
        "no_bias": "True", 
        "num_filter": "128", 
        "pad": "(0, 0)", 
        "stride": "(1, 1)", 
        "workspace": "512"
      }, 
      "inputs": [[480, 0, 0], [481, 0, 0]]
    }, 
    {
      "op": "null", 
      "name": "DBstage3_unit9_bn2_gamma", 
      "attrs": {
        "eps": "2e-05", 
        "fix_gamma": "False", 
        "momentum": "0.9"
      }, 
      "inputs": []
    }, 
    {
      "op": "null", 
      "name": "DBstage3_unit9_bn2_beta", 
      "attrs": {
        "eps": "2e-05", 
        "fix_gamma": "False", 
        "momentum": "0.9"
      }, 
      "inputs": []
    }, 
    {
      "op": "null", 
      "name": "DBstage3_unit9_bn2_moving_mean", 
      "attrs": {
        "__init__": "[\"zero\", {}]", 
        "eps": "2e-05", 
        "fix_gamma": "False", 
        "momentum": "0.9"
      }, 
      "inputs": []
    }, 
    {
      "op": "null", 
      "name": "DBstage3_unit9_bn2_moving_var", 
      "attrs": {
        "__init__": "[\"one\", {}]", 
        "eps": "2e-05", 
        "fix_gamma": "False", 
        "momentum": "0.9"
      }, 
      "inputs": []
    }, 
    {
      "op": "BatchNorm", 
      "name": "DBstage3_unit9_bn2", 
      "attrs": {
        "eps": "2e-05", 
        "fix_gamma": "False", 
        "momentum": "0.9"
      }, 
      "inputs": [[482, 0, 0], [483, 0, 0], [484, 0, 0], [485, 0, 1], [486, 0, 1]]
    }, 
    {
      "op": "Activation", 
      "name": "DBstage3_unit9_relu2", 
      "attrs": {"act_type": "relu"}, 
      "inputs": [[487, 0, 0]]
    }, 
    {
      "op": "null", 
      "name": "DBstage3_unit9_conv2_weight", 
      "attrs": {
        "kernel": "(3, 3)", 
        "no_bias": "True", 
        "num_filter": "32", 
        "pad": "(1, 1)", 
        "stride": "(1, 1)", 
        "workspace": "512"
      }, 
      "inputs": []
    }, 
    {
      "op": "Convolution", 
      "name": "DBstage3_unit9_conv2", 
      "attrs": {
        "kernel": "(3, 3)", 
        "no_bias": "True", 
        "num_filter": "32", 
        "pad": "(1, 1)", 
        "stride": "(1, 1)", 
        "workspace": "512"
      }, 
      "inputs": [[488, 0, 0], [489, 0, 0]]
    }, 
    {
      "op": "Concat", 
      "name": "DBstage3_concat9", 
      "attrs": {"num_args": "2"}, 
      "inputs": [[474, 0, 0], [490, 0, 0]]
    }, 
    {
      "op": "null", 
      "name": "DBstage3_unit10_bn1_gamma", 
      "attrs": {
        "eps": "2e-05", 
        "fix_gamma": "False", 
        "momentum": "0.9"
      }, 
      "inputs": []
    }, 
    {
      "op": "null", 
      "name": "DBstage3_unit10_bn1_beta", 
      "attrs": {
        "eps": "2e-05", 
        "fix_gamma": "False", 
        "momentum": "0.9"
      }, 
      "inputs": []
    }, 
    {
      "op": "null", 
      "name": "DBstage3_unit10_bn1_moving_mean", 
      "attrs": {
        "__init__": "[\"zero\", {}]", 
        "eps": "2e-05", 
        "fix_gamma": "False", 
        "momentum": "0.9"
      }, 
      "inputs": []
    }, 
    {
      "op": "null", 
      "name": "DBstage3_unit10_bn1_moving_var", 
      "attrs": {
        "__init__": "[\"one\", {}]", 
        "eps": "2e-05", 
        "fix_gamma": "False", 
        "momentum": "0.9"
      }, 
      "inputs": []
    }, 
    {
      "op": "BatchNorm", 
      "name": "DBstage3_unit10_bn1", 
      "attrs": {
        "eps": "2e-05", 
        "fix_gamma": "False", 
        "momentum": "0.9"
      }, 
      "inputs": [[491, 0, 0], [492, 0, 0], [493, 0, 0], [494, 0, 1], [495, 0, 1]]
    }, 
    {
      "op": "Activation", 
      "name": "DBstage3_unit10_relu1", 
      "attrs": {"act_type": "relu"}, 
      "inputs": [[496, 0, 0]]
    }, 
    {
      "op": "null", 
      "name": "DBstage3_unit10_conv1_weight", 
      "attrs": {
        "kernel": "(1, 1)", 
        "no_bias": "True", 
        "num_filter": "128", 
        "pad": "(0, 0)", 
        "stride": "(1, 1)", 
        "workspace": "512"
      }, 
      "inputs": []
    }, 
    {
      "op": "Convolution", 
      "name": "DBstage3_unit10_conv1", 
      "attrs": {
        "kernel": "(1, 1)", 
        "no_bias": "True", 
        "num_filter": "128", 
        "pad": "(0, 0)", 
        "stride": "(1, 1)", 
        "workspace": "512"
      }, 
      "inputs": [[497, 0, 0], [498, 0, 0]]
    }, 
    {
      "op": "null", 
      "name": "DBstage3_unit10_bn2_gamma", 
      "attrs": {
        "eps": "2e-05", 
        "fix_gamma": "False", 
        "momentum": "0.9"
      }, 
      "inputs": []
    }, 
    {
      "op": "null", 
      "name": "DBstage3_unit10_bn2_beta", 
      "attrs": {
        "eps": "2e-05", 
        "fix_gamma": "False", 
        "momentum": "0.9"
      }, 
      "inputs": []
    }, 
    {
      "op": "null", 
      "name": "DBstage3_unit10_bn2_moving_mean", 
      "attrs": {
        "__init__": "[\"zero\", {}]", 
        "eps": "2e-05", 
        "fix_gamma": "False", 
        "momentum": "0.9"
      }, 
      "inputs": []
    }, 
    {
      "op": "null", 
      "name": "DBstage3_unit10_bn2_moving_var", 
      "attrs": {
        "__init__": "[\"one\", {}]", 
        "eps": "2e-05", 
        "fix_gamma": "False", 
        "momentum": "0.9"
      }, 
      "inputs": []
    }, 
    {
      "op": "BatchNorm", 
      "name": "DBstage3_unit10_bn2", 
      "attrs": {
        "eps": "2e-05", 
        "fix_gamma": "False", 
        "momentum": "0.9"
      }, 
      "inputs": [[499, 0, 0], [500, 0, 0], [501, 0, 0], [502, 0, 1], [503, 0, 1]]
    }, 
    {
      "op": "Activation", 
      "name": "DBstage3_unit10_relu2", 
      "attrs": {"act_type": "relu"}, 
      "inputs": [[504, 0, 0]]
    }, 
    {
      "op": "null", 
      "name": "DBstage3_unit10_conv2_weight", 
      "attrs": {
        "kernel": "(3, 3)", 
        "no_bias": "True", 
        "num_filter": "32", 
        "pad": "(1, 1)", 
        "stride": "(1, 1)", 
        "workspace": "512"
      }, 
      "inputs": []
    }, 
    {
      "op": "Convolution", 
      "name": "DBstage3_unit10_conv2", 
      "attrs": {
        "kernel": "(3, 3)", 
        "no_bias": "True", 
        "num_filter": "32", 
        "pad": "(1, 1)", 
        "stride": "(1, 1)", 
        "workspace": "512"
      }, 
      "inputs": [[505, 0, 0], [506, 0, 0]]
    }, 
    {
      "op": "Concat", 
      "name": "DBstage3_concat10", 
      "attrs": {"num_args": "2"}, 
      "inputs": [[491, 0, 0], [507, 0, 0]]
    }, 
    {
      "op": "null", 
      "name": "DBstage3_unit11_bn1_gamma", 
      "attrs": {
        "eps": "2e-05", 
        "fix_gamma": "False", 
        "momentum": "0.9"
      }, 
      "inputs": []
    }, 
    {
      "op": "null", 
      "name": "DBstage3_unit11_bn1_beta", 
      "attrs": {
        "eps": "2e-05", 
        "fix_gamma": "False", 
        "momentum": "0.9"
      }, 
      "inputs": []
    }, 
    {
      "op": "null", 
      "name": "DBstage3_unit11_bn1_moving_mean", 
      "attrs": {
        "__init__": "[\"zero\", {}]", 
        "eps": "2e-05", 
        "fix_gamma": "False", 
        "momentum": "0.9"
      }, 
      "inputs": []
    }, 
    {
      "op": "null", 
      "name": "DBstage3_unit11_bn1_moving_var", 
      "attrs": {
        "__init__": "[\"one\", {}]", 
        "eps": "2e-05", 
        "fix_gamma": "False", 
        "momentum": "0.9"
      }, 
      "inputs": []
    }, 
    {
      "op": "BatchNorm", 
      "name": "DBstage3_unit11_bn1", 
      "attrs": {
        "eps": "2e-05", 
        "fix_gamma": "False", 
        "momentum": "0.9"
      }, 
      "inputs": [[508, 0, 0], [509, 0, 0], [510, 0, 0], [511, 0, 1], [512, 0, 1]]
    }, 
    {
      "op": "Activation", 
      "name": "DBstage3_unit11_relu1", 
      "attrs": {"act_type": "relu"}, 
      "inputs": [[513, 0, 0]]
    }, 
    {
      "op": "null", 
      "name": "DBstage3_unit11_conv1_weight", 
      "attrs": {
        "kernel": "(1, 1)", 
        "no_bias": "True", 
        "num_filter": "128", 
        "pad": "(0, 0)", 
        "stride": "(1, 1)", 
        "workspace": "512"
      }, 
      "inputs": []
    }, 
    {
      "op": "Convolution", 
      "name": "DBstage3_unit11_conv1", 
      "attrs": {
        "kernel": "(1, 1)", 
        "no_bias": "True", 
        "num_filter": "128", 
        "pad": "(0, 0)", 
        "stride": "(1, 1)", 
        "workspace": "512"
      }, 
      "inputs": [[514, 0, 0], [515, 0, 0]]
    }, 
    {
      "op": "null", 
      "name": "DBstage3_unit11_bn2_gamma", 
      "attrs": {
        "eps": "2e-05", 
        "fix_gamma": "False", 
        "momentum": "0.9"
      }, 
      "inputs": []
    }, 
    {
      "op": "null", 
      "name": "DBstage3_unit11_bn2_beta", 
      "attrs": {
        "eps": "2e-05", 
        "fix_gamma": "False", 
        "momentum": "0.9"
      }, 
      "inputs": []
    }, 
    {
      "op": "null", 
      "name": "DBstage3_unit11_bn2_moving_mean", 
      "attrs": {
        "__init__": "[\"zero\", {}]", 
        "eps": "2e-05", 
        "fix_gamma": "False", 
        "momentum": "0.9"
      }, 
      "inputs": []
    }, 
    {
      "op": "null", 
      "name": "DBstage3_unit11_bn2_moving_var", 
      "attrs": {
        "__init__": "[\"one\", {}]", 
        "eps": "2e-05", 
        "fix_gamma": "False", 
        "momentum": "0.9"
      }, 
      "inputs": []
    }, 
    {
      "op": "BatchNorm", 
      "name": "DBstage3_unit11_bn2", 
      "attrs": {
        "eps": "2e-05", 
        "fix_gamma": "False", 
        "momentum": "0.9"
      }, 
      "inputs": [[516, 0, 0], [517, 0, 0], [518, 0, 0], [519, 0, 1], [520, 0, 1]]
    }, 
    {
      "op": "Activation", 
      "name": "DBstage3_unit11_relu2", 
      "attrs": {"act_type": "relu"}, 
      "inputs": [[521, 0, 0]]
    }, 
    {
      "op": "null", 
      "name": "DBstage3_unit11_conv2_weight", 
      "attrs": {
        "kernel": "(3, 3)", 
        "no_bias": "True", 
        "num_filter": "32", 
        "pad": "(1, 1)", 
        "stride": "(1, 1)", 
        "workspace": "512"
      }, 
      "inputs": []
    }, 
    {
      "op": "Convolution", 
      "name": "DBstage3_unit11_conv2", 
      "attrs": {
        "kernel": "(3, 3)", 
        "no_bias": "True", 
        "num_filter": "32", 
        "pad": "(1, 1)", 
        "stride": "(1, 1)", 
        "workspace": "512"
      }, 
      "inputs": [[522, 0, 0], [523, 0, 0]]
    }, 
    {
      "op": "Concat", 
      "name": "DBstage3_concat11", 
      "attrs": {"num_args": "2"}, 
      "inputs": [[508, 0, 0], [524, 0, 0]]
    }, 
    {
      "op": "null", 
      "name": "DBstage3_unit12_bn1_gamma", 
      "attrs": {
        "eps": "2e-05", 
        "fix_gamma": "False", 
        "momentum": "0.9"
      }, 
      "inputs": []
    }, 
    {
      "op": "null", 
      "name": "DBstage3_unit12_bn1_beta", 
      "attrs": {
        "eps": "2e-05", 
        "fix_gamma": "False", 
        "momentum": "0.9"
      }, 
      "inputs": []
    }, 
    {
      "op": "null", 
      "name": "DBstage3_unit12_bn1_moving_mean", 
      "attrs": {
        "__init__": "[\"zero\", {}]", 
        "eps": "2e-05", 
        "fix_gamma": "False", 
        "momentum": "0.9"
      }, 
      "inputs": []
    }, 
    {
      "op": "null", 
      "name": "DBstage3_unit12_bn1_moving_var", 
      "attrs": {
        "__init__": "[\"one\", {}]", 
        "eps": "2e-05", 
        "fix_gamma": "False", 
        "momentum": "0.9"
      }, 
      "inputs": []
    }, 
    {
      "op": "BatchNorm", 
      "name": "DBstage3_unit12_bn1", 
      "attrs": {
        "eps": "2e-05", 
        "fix_gamma": "False", 
        "momentum": "0.9"
      }, 
      "inputs": [[525, 0, 0], [526, 0, 0], [527, 0, 0], [528, 0, 1], [529, 0, 1]]
    }, 
    {
      "op": "Activation", 
      "name": "DBstage3_unit12_relu1", 
      "attrs": {"act_type": "relu"}, 
      "inputs": [[530, 0, 0]]
    }, 
    {
      "op": "null", 
      "name": "DBstage3_unit12_conv1_weight", 
      "attrs": {
        "kernel": "(1, 1)", 
        "no_bias": "True", 
        "num_filter": "128", 
        "pad": "(0, 0)", 
        "stride": "(1, 1)", 
        "workspace": "512"
      }, 
      "inputs": []
    }, 
    {
      "op": "Convolution", 
      "name": "DBstage3_unit12_conv1", 
      "attrs": {
        "kernel": "(1, 1)", 
        "no_bias": "True", 
        "num_filter": "128", 
        "pad": "(0, 0)", 
        "stride": "(1, 1)", 
        "workspace": "512"
      }, 
      "inputs": [[531, 0, 0], [532, 0, 0]]
    }, 
    {
      "op": "null", 
      "name": "DBstage3_unit12_bn2_gamma", 
      "attrs": {
        "eps": "2e-05", 
        "fix_gamma": "False", 
        "momentum": "0.9"
      }, 
      "inputs": []
    }, 
    {
      "op": "null", 
      "name": "DBstage3_unit12_bn2_beta", 
      "attrs": {
        "eps": "2e-05", 
        "fix_gamma": "False", 
        "momentum": "0.9"
      }, 
      "inputs": []
    }, 
    {
      "op": "null", 
      "name": "DBstage3_unit12_bn2_moving_mean", 
      "attrs": {
        "__init__": "[\"zero\", {}]", 
        "eps": "2e-05", 
        "fix_gamma": "False", 
        "momentum": "0.9"
      }, 
      "inputs": []
    }, 
    {
      "op": "null", 
      "name": "DBstage3_unit12_bn2_moving_var", 
      "attrs": {
        "__init__": "[\"one\", {}]", 
        "eps": "2e-05", 
        "fix_gamma": "False", 
        "momentum": "0.9"
      }, 
      "inputs": []
    }, 
    {
      "op": "BatchNorm", 
      "name": "DBstage3_unit12_bn2", 
      "attrs": {
        "eps": "2e-05", 
        "fix_gamma": "False", 
        "momentum": "0.9"
      }, 
      "inputs": [[533, 0, 0], [534, 0, 0], [535, 0, 0], [536, 0, 1], [537, 0, 1]]
    }, 
    {
      "op": "Activation", 
      "name": "DBstage3_unit12_relu2", 
      "attrs": {"act_type": "relu"}, 
      "inputs": [[538, 0, 0]]
    }, 
    {
      "op": "null", 
      "name": "DBstage3_unit12_conv2_weight", 
      "attrs": {
        "kernel": "(3, 3)", 
        "no_bias": "True", 
        "num_filter": "32", 
        "pad": "(1, 1)", 
        "stride": "(1, 1)", 
        "workspace": "512"
      }, 
      "inputs": []
    }, 
    {
      "op": "Convolution", 
      "name": "DBstage3_unit12_conv2", 
      "attrs": {
        "kernel": "(3, 3)", 
        "no_bias": "True", 
        "num_filter": "32", 
        "pad": "(1, 1)", 
        "stride": "(1, 1)", 
        "workspace": "512"
      }, 
      "inputs": [[539, 0, 0], [540, 0, 0]]
    }, 
    {
      "op": "Concat", 
      "name": "DBstage3_concat12", 
      "attrs": {"num_args": "2"}, 
      "inputs": [[525, 0, 0], [541, 0, 0]]
    }, 
    {
      "op": "null", 
      "name": "DBstage3_unit13_bn1_gamma", 
      "attrs": {
        "eps": "2e-05", 
        "fix_gamma": "False", 
        "momentum": "0.9"
      }, 
      "inputs": []
    }, 
    {
      "op": "null", 
      "name": "DBstage3_unit13_bn1_beta", 
      "attrs": {
        "eps": "2e-05", 
        "fix_gamma": "False", 
        "momentum": "0.9"
      }, 
      "inputs": []
    }, 
    {
      "op": "null", 
      "name": "DBstage3_unit13_bn1_moving_mean", 
      "attrs": {
        "__init__": "[\"zero\", {}]", 
        "eps": "2e-05", 
        "fix_gamma": "False", 
        "momentum": "0.9"
      }, 
      "inputs": []
    }, 
    {
      "op": "null", 
      "name": "DBstage3_unit13_bn1_moving_var", 
      "attrs": {
        "__init__": "[\"one\", {}]", 
        "eps": "2e-05", 
        "fix_gamma": "False", 
        "momentum": "0.9"
      }, 
      "inputs": []
    }, 
    {
      "op": "BatchNorm", 
      "name": "DBstage3_unit13_bn1", 
      "attrs": {
        "eps": "2e-05", 
        "fix_gamma": "False", 
        "momentum": "0.9"
      }, 
      "inputs": [[542, 0, 0], [543, 0, 0], [544, 0, 0], [545, 0, 1], [546, 0, 1]]
    }, 
    {
      "op": "Activation", 
      "name": "DBstage3_unit13_relu1", 
      "attrs": {"act_type": "relu"}, 
      "inputs": [[547, 0, 0]]
    }, 
    {
      "op": "null", 
      "name": "DBstage3_unit13_conv1_weight", 
      "attrs": {
        "kernel": "(1, 1)", 
        "no_bias": "True", 
        "num_filter": "128", 
        "pad": "(0, 0)", 
        "stride": "(1, 1)", 
        "workspace": "512"
      }, 
      "inputs": []
    }, 
    {
      "op": "Convolution", 
      "name": "DBstage3_unit13_conv1", 
      "attrs": {
        "kernel": "(1, 1)", 
        "no_bias": "True", 
        "num_filter": "128", 
        "pad": "(0, 0)", 
        "stride": "(1, 1)", 
        "workspace": "512"
      }, 
      "inputs": [[548, 0, 0], [549, 0, 0]]
    }, 
    {
      "op": "null", 
      "name": "DBstage3_unit13_bn2_gamma", 
      "attrs": {
        "eps": "2e-05", 
        "fix_gamma": "False", 
        "momentum": "0.9"
      }, 
      "inputs": []
    }, 
    {
      "op": "null", 
      "name": "DBstage3_unit13_bn2_beta", 
      "attrs": {
        "eps": "2e-05", 
        "fix_gamma": "False", 
        "momentum": "0.9"
      }, 
      "inputs": []
    }, 
    {
      "op": "null", 
      "name": "DBstage3_unit13_bn2_moving_mean", 
      "attrs": {
        "__init__": "[\"zero\", {}]", 
        "eps": "2e-05", 
        "fix_gamma": "False", 
        "momentum": "0.9"
      }, 
      "inputs": []
    }, 
    {
      "op": "null", 
      "name": "DBstage3_unit13_bn2_moving_var", 
      "attrs": {
        "__init__": "[\"one\", {}]", 
        "eps": "2e-05", 
        "fix_gamma": "False", 
        "momentum": "0.9"
      }, 
      "inputs": []
    }, 
    {
      "op": "BatchNorm", 
      "name": "DBstage3_unit13_bn2", 
      "attrs": {
        "eps": "2e-05", 
        "fix_gamma": "False", 
        "momentum": "0.9"
      }, 
      "inputs": [[550, 0, 0], [551, 0, 0], [552, 0, 0], [553, 0, 1], [554, 0, 1]]
    }, 
    {
      "op": "Activation", 
      "name": "DBstage3_unit13_relu2", 
      "attrs": {"act_type": "relu"}, 
      "inputs": [[555, 0, 0]]
    }, 
    {
      "op": "null", 
      "name": "DBstage3_unit13_conv2_weight", 
      "attrs": {
        "kernel": "(3, 3)", 
        "no_bias": "True", 
        "num_filter": "32", 
        "pad": "(1, 1)", 
        "stride": "(1, 1)", 
        "workspace": "512"
      }, 
      "inputs": []
    }, 
    {
      "op": "Convolution", 
      "name": "DBstage3_unit13_conv2", 
      "attrs": {
        "kernel": "(3, 3)", 
        "no_bias": "True", 
        "num_filter": "32", 
        "pad": "(1, 1)", 
        "stride": "(1, 1)", 
        "workspace": "512"
      }, 
      "inputs": [[556, 0, 0], [557, 0, 0]]
    }, 
    {
      "op": "Concat", 
      "name": "DBstage3_concat13", 
      "attrs": {"num_args": "2"}, 
      "inputs": [[542, 0, 0], [558, 0, 0]]
    }, 
    {
      "op": "null", 
      "name": "DBstage3_unit14_bn1_gamma", 
      "attrs": {
        "eps": "2e-05", 
        "fix_gamma": "False", 
        "momentum": "0.9"
      }, 
      "inputs": []
    }, 
    {
      "op": "null", 
      "name": "DBstage3_unit14_bn1_beta", 
      "attrs": {
        "eps": "2e-05", 
        "fix_gamma": "False", 
        "momentum": "0.9"
      }, 
      "inputs": []
    }, 
    {
      "op": "null", 
      "name": "DBstage3_unit14_bn1_moving_mean", 
      "attrs": {
        "__init__": "[\"zero\", {}]", 
        "eps": "2e-05", 
        "fix_gamma": "False", 
        "momentum": "0.9"
      }, 
      "inputs": []
    }, 
    {
      "op": "null", 
      "name": "DBstage3_unit14_bn1_moving_var", 
      "attrs": {
        "__init__": "[\"one\", {}]", 
        "eps": "2e-05", 
        "fix_gamma": "False", 
        "momentum": "0.9"
      }, 
      "inputs": []
    }, 
    {
      "op": "BatchNorm", 
      "name": "DBstage3_unit14_bn1", 
      "attrs": {
        "eps": "2e-05", 
        "fix_gamma": "False", 
        "momentum": "0.9"
      }, 
      "inputs": [[559, 0, 0], [560, 0, 0], [561, 0, 0], [562, 0, 1], [563, 0, 1]]
    }, 
    {
      "op": "Activation", 
      "name": "DBstage3_unit14_relu1", 
      "attrs": {"act_type": "relu"}, 
      "inputs": [[564, 0, 0]]
    }, 
    {
      "op": "null", 
      "name": "DBstage3_unit14_conv1_weight", 
      "attrs": {
        "kernel": "(1, 1)", 
        "no_bias": "True", 
        "num_filter": "128", 
        "pad": "(0, 0)", 
        "stride": "(1, 1)", 
        "workspace": "512"
      }, 
      "inputs": []
    }, 
    {
      "op": "Convolution", 
      "name": "DBstage3_unit14_conv1", 
      "attrs": {
        "kernel": "(1, 1)", 
        "no_bias": "True", 
        "num_filter": "128", 
        "pad": "(0, 0)", 
        "stride": "(1, 1)", 
        "workspace": "512"
      }, 
      "inputs": [[565, 0, 0], [566, 0, 0]]
    }, 
    {
      "op": "null", 
      "name": "DBstage3_unit14_bn2_gamma", 
      "attrs": {
        "eps": "2e-05", 
        "fix_gamma": "False", 
        "momentum": "0.9"
      }, 
      "inputs": []
    }, 
    {
      "op": "null", 
      "name": "DBstage3_unit14_bn2_beta", 
      "attrs": {
        "eps": "2e-05", 
        "fix_gamma": "False", 
        "momentum": "0.9"
      }, 
      "inputs": []
    }, 
    {
      "op": "null", 
      "name": "DBstage3_unit14_bn2_moving_mean", 
      "attrs": {
        "__init__": "[\"zero\", {}]", 
        "eps": "2e-05", 
        "fix_gamma": "False", 
        "momentum": "0.9"
      }, 
      "inputs": []
    }, 
    {
      "op": "null", 
      "name": "DBstage3_unit14_bn2_moving_var", 
      "attrs": {
        "__init__": "[\"one\", {}]", 
        "eps": "2e-05", 
        "fix_gamma": "False", 
        "momentum": "0.9"
      }, 
      "inputs": []
    }, 
    {
      "op": "BatchNorm", 
      "name": "DBstage3_unit14_bn2", 
      "attrs": {
        "eps": "2e-05", 
        "fix_gamma": "False", 
        "momentum": "0.9"
      }, 
      "inputs": [[567, 0, 0], [568, 0, 0], [569, 0, 0], [570, 0, 1], [571, 0, 1]]
    }, 
    {
      "op": "Activation", 
      "name": "DBstage3_unit14_relu2", 
      "attrs": {"act_type": "relu"}, 
      "inputs": [[572, 0, 0]]
    }, 
    {
      "op": "null", 
      "name": "DBstage3_unit14_conv2_weight", 
      "attrs": {
        "kernel": "(3, 3)", 
        "no_bias": "True", 
        "num_filter": "32", 
        "pad": "(1, 1)", 
        "stride": "(1, 1)", 
        "workspace": "512"
      }, 
      "inputs": []
    }, 
    {
      "op": "Convolution", 
      "name": "DBstage3_unit14_conv2", 
      "attrs": {
        "kernel": "(3, 3)", 
        "no_bias": "True", 
        "num_filter": "32", 
        "pad": "(1, 1)", 
        "stride": "(1, 1)", 
        "workspace": "512"
      }, 
      "inputs": [[573, 0, 0], [574, 0, 0]]
    }, 
    {
      "op": "Concat", 
      "name": "DBstage3_concat14", 
      "attrs": {"num_args": "2"}, 
      "inputs": [[559, 0, 0], [575, 0, 0]]
    }, 
    {
      "op": "null", 
      "name": "DBstage3_unit15_bn1_gamma", 
      "attrs": {
        "eps": "2e-05", 
        "fix_gamma": "False", 
        "momentum": "0.9"
      }, 
      "inputs": []
    }, 
    {
      "op": "null", 
      "name": "DBstage3_unit15_bn1_beta", 
      "attrs": {
        "eps": "2e-05", 
        "fix_gamma": "False", 
        "momentum": "0.9"
      }, 
      "inputs": []
    }, 
    {
      "op": "null", 
      "name": "DBstage3_unit15_bn1_moving_mean", 
      "attrs": {
        "__init__": "[\"zero\", {}]", 
        "eps": "2e-05", 
        "fix_gamma": "False", 
        "momentum": "0.9"
      }, 
      "inputs": []
    }, 
    {
      "op": "null", 
      "name": "DBstage3_unit15_bn1_moving_var", 
      "attrs": {
        "__init__": "[\"one\", {}]", 
        "eps": "2e-05", 
        "fix_gamma": "False", 
        "momentum": "0.9"
      }, 
      "inputs": []
    }, 
    {
      "op": "BatchNorm", 
      "name": "DBstage3_unit15_bn1", 
      "attrs": {
        "eps": "2e-05", 
        "fix_gamma": "False", 
        "momentum": "0.9"
      }, 
      "inputs": [[576, 0, 0], [577, 0, 0], [578, 0, 0], [579, 0, 1], [580, 0, 1]]
    }, 
    {
      "op": "Activation", 
      "name": "DBstage3_unit15_relu1", 
      "attrs": {"act_type": "relu"}, 
      "inputs": [[581, 0, 0]]
    }, 
    {
      "op": "null", 
      "name": "DBstage3_unit15_conv1_weight", 
      "attrs": {
        "kernel": "(1, 1)", 
        "no_bias": "True", 
        "num_filter": "128", 
        "pad": "(0, 0)", 
        "stride": "(1, 1)", 
        "workspace": "512"
      }, 
      "inputs": []
    }, 
    {
      "op": "Convolution", 
      "name": "DBstage3_unit15_conv1", 
      "attrs": {
        "kernel": "(1, 1)", 
        "no_bias": "True", 
        "num_filter": "128", 
        "pad": "(0, 0)", 
        "stride": "(1, 1)", 
        "workspace": "512"
      }, 
      "inputs": [[582, 0, 0], [583, 0, 0]]
    }, 
    {
      "op": "null", 
      "name": "DBstage3_unit15_bn2_gamma", 
      "attrs": {
        "eps": "2e-05", 
        "fix_gamma": "False", 
        "momentum": "0.9"
      }, 
      "inputs": []
    }, 
    {
      "op": "null", 
      "name": "DBstage3_unit15_bn2_beta", 
      "attrs": {
        "eps": "2e-05", 
        "fix_gamma": "False", 
        "momentum": "0.9"
      }, 
      "inputs": []
    }, 
    {
      "op": "null", 
      "name": "DBstage3_unit15_bn2_moving_mean", 
      "attrs": {
        "__init__": "[\"zero\", {}]", 
        "eps": "2e-05", 
        "fix_gamma": "False", 
        "momentum": "0.9"
      }, 
      "inputs": []
    }, 
    {
      "op": "null", 
      "name": "DBstage3_unit15_bn2_moving_var", 
      "attrs": {
        "__init__": "[\"one\", {}]", 
        "eps": "2e-05", 
        "fix_gamma": "False", 
        "momentum": "0.9"
      }, 
      "inputs": []
    }, 
    {
      "op": "BatchNorm", 
      "name": "DBstage3_unit15_bn2", 
      "attrs": {
        "eps": "2e-05", 
        "fix_gamma": "False", 
        "momentum": "0.9"
      }, 
      "inputs": [[584, 0, 0], [585, 0, 0], [586, 0, 0], [587, 0, 1], [588, 0, 1]]
    }, 
    {
      "op": "Activation", 
      "name": "DBstage3_unit15_relu2", 
      "attrs": {"act_type": "relu"}, 
      "inputs": [[589, 0, 0]]
    }, 
    {
      "op": "null", 
      "name": "DBstage3_unit15_conv2_weight", 
      "attrs": {
        "kernel": "(3, 3)", 
        "no_bias": "True", 
        "num_filter": "32", 
        "pad": "(1, 1)", 
        "stride": "(1, 1)", 
        "workspace": "512"
      }, 
      "inputs": []
    }, 
    {
      "op": "Convolution", 
      "name": "DBstage3_unit15_conv2", 
      "attrs": {
        "kernel": "(3, 3)", 
        "no_bias": "True", 
        "num_filter": "32", 
        "pad": "(1, 1)", 
        "stride": "(1, 1)", 
        "workspace": "512"
      }, 
      "inputs": [[590, 0, 0], [591, 0, 0]]
    }, 
    {
      "op": "Concat", 
      "name": "DBstage3_concat15", 
      "attrs": {"num_args": "2"}, 
      "inputs": [[576, 0, 0], [592, 0, 0]]
    }, 
    {
      "op": "null", 
      "name": "DBstage3_unit16_bn1_gamma", 
      "attrs": {
        "eps": "2e-05", 
        "fix_gamma": "False", 
        "momentum": "0.9"
      }, 
      "inputs": []
    }, 
    {
      "op": "null", 
      "name": "DBstage3_unit16_bn1_beta", 
      "attrs": {
        "eps": "2e-05", 
        "fix_gamma": "False", 
        "momentum": "0.9"
      }, 
      "inputs": []
    }, 
    {
      "op": "null", 
      "name": "DBstage3_unit16_bn1_moving_mean", 
      "attrs": {
        "__init__": "[\"zero\", {}]", 
        "eps": "2e-05", 
        "fix_gamma": "False", 
        "momentum": "0.9"
      }, 
      "inputs": []
    }, 
    {
      "op": "null", 
      "name": "DBstage3_unit16_bn1_moving_var", 
      "attrs": {
        "__init__": "[\"one\", {}]", 
        "eps": "2e-05", 
        "fix_gamma": "False", 
        "momentum": "0.9"
      }, 
      "inputs": []
    }, 
    {
      "op": "BatchNorm", 
      "name": "DBstage3_unit16_bn1", 
      "attrs": {
        "eps": "2e-05", 
        "fix_gamma": "False", 
        "momentum": "0.9"
      }, 
      "inputs": [[593, 0, 0], [594, 0, 0], [595, 0, 0], [596, 0, 1], [597, 0, 1]]
    }, 
    {
      "op": "Activation", 
      "name": "DBstage3_unit16_relu1", 
      "attrs": {"act_type": "relu"}, 
      "inputs": [[598, 0, 0]]
    }, 
    {
      "op": "null", 
      "name": "DBstage3_unit16_conv1_weight", 
      "attrs": {
        "kernel": "(1, 1)", 
        "no_bias": "True", 
        "num_filter": "128", 
        "pad": "(0, 0)", 
        "stride": "(1, 1)", 
        "workspace": "512"
      }, 
      "inputs": []
    }, 
    {
      "op": "Convolution", 
      "name": "DBstage3_unit16_conv1", 
      "attrs": {
        "kernel": "(1, 1)", 
        "no_bias": "True", 
        "num_filter": "128", 
        "pad": "(0, 0)", 
        "stride": "(1, 1)", 
        "workspace": "512"
      }, 
      "inputs": [[599, 0, 0], [600, 0, 0]]
    }, 
    {
      "op": "null", 
      "name": "DBstage3_unit16_bn2_gamma", 
      "attrs": {
        "eps": "2e-05", 
        "fix_gamma": "False", 
        "momentum": "0.9"
      }, 
      "inputs": []
    }, 
    {
      "op": "null", 
      "name": "DBstage3_unit16_bn2_beta", 
      "attrs": {
        "eps": "2e-05", 
        "fix_gamma": "False", 
        "momentum": "0.9"
      }, 
      "inputs": []
    }, 
    {
      "op": "null", 
      "name": "DBstage3_unit16_bn2_moving_mean", 
      "attrs": {
        "__init__": "[\"zero\", {}]", 
        "eps": "2e-05", 
        "fix_gamma": "False", 
        "momentum": "0.9"
      }, 
      "inputs": []
    }, 
    {
      "op": "null", 
      "name": "DBstage3_unit16_bn2_moving_var", 
      "attrs": {
        "__init__": "[\"one\", {}]", 
        "eps": "2e-05", 
        "fix_gamma": "False", 
        "momentum": "0.9"
      }, 
      "inputs": []
    }, 
    {
      "op": "BatchNorm", 
      "name": "DBstage3_unit16_bn2", 
      "attrs": {
        "eps": "2e-05", 
        "fix_gamma": "False", 
        "momentum": "0.9"
      }, 
      "inputs": [[601, 0, 0], [602, 0, 0], [603, 0, 0], [604, 0, 1], [605, 0, 1]]
    }, 
    {
      "op": "Activation", 
      "name": "DBstage3_unit16_relu2", 
      "attrs": {"act_type": "relu"}, 
      "inputs": [[606, 0, 0]]
    }, 
    {
      "op": "null", 
      "name": "DBstage3_unit16_conv2_weight", 
      "attrs": {
        "kernel": "(3, 3)", 
        "no_bias": "True", 
        "num_filter": "32", 
        "pad": "(1, 1)", 
        "stride": "(1, 1)", 
        "workspace": "512"
      }, 
      "inputs": []
    }, 
    {
      "op": "Convolution", 
      "name": "DBstage3_unit16_conv2", 
      "attrs": {
        "kernel": "(3, 3)", 
        "no_bias": "True", 
        "num_filter": "32", 
        "pad": "(1, 1)", 
        "stride": "(1, 1)", 
        "workspace": "512"
      }, 
      "inputs": [[607, 0, 0], [608, 0, 0]]
    }, 
    {
      "op": "Concat", 
      "name": "DBstage3_concat16", 
      "attrs": {"num_args": "2"}, 
      "inputs": [[593, 0, 0], [609, 0, 0]]
    }, 
    {
      "op": "null", 
      "name": "DBstage3_unit17_bn1_gamma", 
      "attrs": {
        "eps": "2e-05", 
        "fix_gamma": "False", 
        "momentum": "0.9"
      }, 
      "inputs": []
    }, 
    {
      "op": "null", 
      "name": "DBstage3_unit17_bn1_beta", 
      "attrs": {
        "eps": "2e-05", 
        "fix_gamma": "False", 
        "momentum": "0.9"
      }, 
      "inputs": []
    }, 
    {
      "op": "null", 
      "name": "DBstage3_unit17_bn1_moving_mean", 
      "attrs": {
        "__init__": "[\"zero\", {}]", 
        "eps": "2e-05", 
        "fix_gamma": "False", 
        "momentum": "0.9"
      }, 
      "inputs": []
    }, 
    {
      "op": "null", 
      "name": "DBstage3_unit17_bn1_moving_var", 
      "attrs": {
        "__init__": "[\"one\", {}]", 
        "eps": "2e-05", 
        "fix_gamma": "False", 
        "momentum": "0.9"
      }, 
      "inputs": []
    }, 
    {
      "op": "BatchNorm", 
      "name": "DBstage3_unit17_bn1", 
      "attrs": {
        "eps": "2e-05", 
        "fix_gamma": "False", 
        "momentum": "0.9"
      }, 
      "inputs": [[610, 0, 0], [611, 0, 0], [612, 0, 0], [613, 0, 1], [614, 0, 1]]
    }, 
    {
      "op": "Activation", 
      "name": "DBstage3_unit17_relu1", 
      "attrs": {"act_type": "relu"}, 
      "inputs": [[615, 0, 0]]
    }, 
    {
      "op": "null", 
      "name": "DBstage3_unit17_conv1_weight", 
      "attrs": {
        "kernel": "(1, 1)", 
        "no_bias": "True", 
        "num_filter": "128", 
        "pad": "(0, 0)", 
        "stride": "(1, 1)", 
        "workspace": "512"
      }, 
      "inputs": []
    }, 
    {
      "op": "Convolution", 
      "name": "DBstage3_unit17_conv1", 
      "attrs": {
        "kernel": "(1, 1)", 
        "no_bias": "True", 
        "num_filter": "128", 
        "pad": "(0, 0)", 
        "stride": "(1, 1)", 
        "workspace": "512"
      }, 
      "inputs": [[616, 0, 0], [617, 0, 0]]
    }, 
    {
      "op": "null", 
      "name": "DBstage3_unit17_bn2_gamma", 
      "attrs": {
        "eps": "2e-05", 
        "fix_gamma": "False", 
        "momentum": "0.9"
      }, 
      "inputs": []
    }, 
    {
      "op": "null", 
      "name": "DBstage3_unit17_bn2_beta", 
      "attrs": {
        "eps": "2e-05", 
        "fix_gamma": "False", 
        "momentum": "0.9"
      }, 
      "inputs": []
    }, 
    {
      "op": "null", 
      "name": "DBstage3_unit17_bn2_moving_mean", 
      "attrs": {
        "__init__": "[\"zero\", {}]", 
        "eps": "2e-05", 
        "fix_gamma": "False", 
        "momentum": "0.9"
      }, 
      "inputs": []
    }, 
    {
      "op": "null", 
      "name": "DBstage3_unit17_bn2_moving_var", 
      "attrs": {
        "__init__": "[\"one\", {}]", 
        "eps": "2e-05", 
        "fix_gamma": "False", 
        "momentum": "0.9"
      }, 
      "inputs": []
    }, 
    {
      "op": "BatchNorm", 
      "name": "DBstage3_unit17_bn2", 
      "attrs": {
        "eps": "2e-05", 
        "fix_gamma": "False", 
        "momentum": "0.9"
      }, 
      "inputs": [[618, 0, 0], [619, 0, 0], [620, 0, 0], [621, 0, 1], [622, 0, 1]]
    }, 
    {
      "op": "Activation", 
      "name": "DBstage3_unit17_relu2", 
      "attrs": {"act_type": "relu"}, 
      "inputs": [[623, 0, 0]]
    }, 
    {
      "op": "null", 
      "name": "DBstage3_unit17_conv2_weight", 
      "attrs": {
        "kernel": "(3, 3)", 
        "no_bias": "True", 
        "num_filter": "32", 
        "pad": "(1, 1)", 
        "stride": "(1, 1)", 
        "workspace": "512"
      }, 
      "inputs": []
    }, 
    {
      "op": "Convolution", 
      "name": "DBstage3_unit17_conv2", 
      "attrs": {
        "kernel": "(3, 3)", 
        "no_bias": "True", 
        "num_filter": "32", 
        "pad": "(1, 1)", 
        "stride": "(1, 1)", 
        "workspace": "512"
      }, 
      "inputs": [[624, 0, 0], [625, 0, 0]]
    }, 
    {
      "op": "Concat", 
      "name": "DBstage3_concat17", 
      "attrs": {"num_args": "2"}, 
      "inputs": [[610, 0, 0], [626, 0, 0]]
    }, 
    {
      "op": "null", 
      "name": "DBstage3_unit18_bn1_gamma", 
      "attrs": {
        "eps": "2e-05", 
        "fix_gamma": "False", 
        "momentum": "0.9"
      }, 
      "inputs": []
    }, 
    {
      "op": "null", 
      "name": "DBstage3_unit18_bn1_beta", 
      "attrs": {
        "eps": "2e-05", 
        "fix_gamma": "False", 
        "momentum": "0.9"
      }, 
      "inputs": []
    }, 
    {
      "op": "null", 
      "name": "DBstage3_unit18_bn1_moving_mean", 
      "attrs": {
        "__init__": "[\"zero\", {}]", 
        "eps": "2e-05", 
        "fix_gamma": "False", 
        "momentum": "0.9"
      }, 
      "inputs": []
    }, 
    {
      "op": "null", 
      "name": "DBstage3_unit18_bn1_moving_var", 
      "attrs": {
        "__init__": "[\"one\", {}]", 
        "eps": "2e-05", 
        "fix_gamma": "False", 
        "momentum": "0.9"
      }, 
      "inputs": []
    }, 
    {
      "op": "BatchNorm", 
      "name": "DBstage3_unit18_bn1", 
      "attrs": {
        "eps": "2e-05", 
        "fix_gamma": "False", 
        "momentum": "0.9"
      }, 
      "inputs": [[627, 0, 0], [628, 0, 0], [629, 0, 0], [630, 0, 1], [631, 0, 1]]
    }, 
    {
…
      "name": "DBstage4_unit27_bn1_moving_mean", 
      "attrs": {
        "__init__": "[\"zero\", {}]", 
        "eps": "2e-05", 
        "fix_gamma": "False", 
        "momentum": "0.9"
      }, 
      "inputs": []
    }, 
    {
      "op": "null", 
      "name": "DBstage4_unit27_bn1_moving_var", 
      "attrs": {
        "__init__": "[\"one\", {}]", 
        "eps": "2e-05", 
        "fix_gamma": "False", 
        "momentum": "0.9"
      }, 
      "inputs": []
    }, 
    {
      "op": "BatchNorm", 
      "name": "DBstage4_unit27_bn1", 
      "attrs": {
        "eps": "2e-05", 
        "fix_gamma": "False", 
        "momentum": "0.9"
      }, 
      "inputs": [[1333, 0, 0], [1334, 0, 0], [1335, 0, 0], [1336, 0, 1], [1337, 0, 1]]
    }, 
    {
      "op": "Activation", 
      "name": "DBstage4_unit27_relu1", 
      "attrs": {"act_type": "relu"}, 
      "inputs": [[1338, 0, 0]]
    }, 
    {
      "op": "null", 
      "name": "DBstage4_unit27_conv1_weight", 
      "attrs": {
        "kernel": "(1, 1)", 
        "no_bias": "True", 
        "num_filter": "128", 
        "pad": "(0, 0)", 
        "stride": "(1, 1)", 
        "workspace": "512"
      }, 
      "inputs": []
    }, 
    {
      "op": "Convolution", 
      "name": "DBstage4_unit27_conv1", 
      "attrs": {
        "kernel": "(1, 1)", 
        "no_bias": "True", 
        "num_filter": "128", 
        "pad": "(0, 0)", 
        "stride": "(1, 1)", 
        "workspace": "512"
      }, 
      "inputs": [[1339, 0, 0], [1340, 0, 0]]
    }, 
    {
      "op": "null", 
      "name": "DBstage4_unit27_bn2_gamma", 
      "attrs": {
        "eps": "2e-05", 
        "fix_gamma": "False", 
        "momentum": "0.9"
      }, 
      "inputs": []
    }, 
    {
      "op": "null", 
      "name": "DBstage4_unit27_bn2_beta", 
      "attrs": {
        "eps": "2e-05", 
        "fix_gamma": "False", 
        "momentum": "0.9"
      }, 
      "inputs": []
    }, 
    {
      "op": "null", 
      "name": "DBstage4_unit27_bn2_moving_mean", 
      "attrs": {
        "__init__": "[\"zero\", {}]", 
        "eps": "2e-05", 
        "fix_gamma": "False", 
        "momentum": "0.9"
      }, 
      "inputs": []
    }, 
    {
      "op": "null", 
      "name": "DBstage4_unit27_bn2_moving_var", 
      "attrs": {
        "__init__": "[\"one\", {}]", 
        "eps": "2e-05", 
        "fix_gamma": "False", 
        "momentum": "0.9"
      }, 
      "inputs": []
    }, 
    {
      "op": "BatchNorm", 
      "name": "DBstage4_unit27_bn2", 
      "attrs": {
        "eps": "2e-05", 
        "fix_gamma": "False", 
        "momentum": "0.9"
      }, 
      "inputs": [[1341, 0, 0], [1342, 0, 0], [1343, 0, 0], [1344, 0, 1], [1345, 0, 1]]
    }, 
    {
      "op": "Activation", 
      "name": "DBstage4_unit27_relu2", 
      "attrs": {"act_type": "relu"}, 
      "inputs": [[1346, 0, 0]]
    }, 
    {
      "op": "null", 
      "name": "DBstage4_unit27_conv2_weight", 
      "attrs": {
        "kernel": "(3, 3)", 
        "no_bias": "True", 
        "num_filter": "32", 
        "pad": "(1, 1)", 
        "stride": "(1, 1)", 
        "workspace": "512"
      }, 
      "inputs": []
    }, 
    {
      "op": "Convolution", 
      "name": "DBstage4_unit27_conv2", 
      "attrs": {
        "kernel": "(3, 3)", 
        "no_bias": "True", 
        "num_filter": "32", 
        "pad": "(1, 1)", 
        "stride": "(1, 1)", 
        "workspace": "512"
      }, 
      "inputs": [[1347, 0, 0], [1348, 0, 0]]
    }, 
    {
      "op": "Concat", 
      "name": "DBstage4_concat27", 
      "attrs": {"num_args": "2"}, 
      "inputs": [[1333, 0, 0], [1349, 0, 0]]
    }, 
    {
      "op": "null", 
      "name": "DBstage4_unit28_bn1_gamma", 
      "attrs": {
        "eps": "2e-05", 
        "fix_gamma": "False", 
        "momentum": "0.9"
      }, 
      "inputs": []
    }, 
    {
      "op": "null", 
      "name": "DBstage4_unit28_bn1_beta", 
      "attrs": {
        "eps": "2e-05", 
        "fix_gamma": "False", 
        "momentum": "0.9"
      }, 
      "inputs": []
    }, 
    {
      "op": "null", 
      "name": "DBstage4_unit28_bn1_moving_mean", 
      "attrs": {
        "__init__": "[\"zero\", {}]", 
        "eps": "2e-05", 
        "fix_gamma": "False", 
        "momentum": "0.9"
      }, 
      "inputs": []
    }, 
    {
      "op": "null", 
      "name": "DBstage4_unit28_bn1_moving_var", 
      "attrs": {
        "__init__": "[\"one\", {}]", 
        "eps": "2e-05", 
        "fix_gamma": "False", 
        "momentum": "0.9"
      }, 
      "inputs": []
    }, 
    {
      "op": "BatchNorm", 
      "name": "DBstage4_unit28_bn1", 
      "attrs": {
        "eps": "2e-05", 
        "fix_gamma": "False", 
        "momentum": "0.9"
      }, 
      "inputs": [[1350, 0, 0], [1351, 0, 0], [1352, 0, 0], [1353, 0, 1], [1354, 0, 1]]
    }, 
    {
      "op": "Activation", 
      "name": "DBstage4_unit28_relu1", 
      "attrs": {"act_type": "relu"}, 
      "inputs": [[1355, 0, 0]]
    }, 
    {
      "op": "null", 
      "name": "DBstage4_unit28_conv1_weight", 
      "attrs": {
        "kernel": "(1, 1)", 
        "no_bias": "True", 
        "num_filter": "128", 
        "pad": "(0, 0)", 
        "stride": "(1, 1)", 
        "workspace": "512"
      }, 
      "inputs": []
    }, 
    {
      "op": "Convolution", 
      "name": "DBstage4_unit28_conv1", 
      "attrs": {
        "kernel": "(1, 1)", 
        "no_bias": "True", 
        "num_filter": "128", 
        "pad": "(0, 0)", 
        "stride": "(1, 1)", 
        "workspace": "512"
      }, 
      "inputs": [[1356, 0, 0], [1357, 0, 0]]
    }, 
    {
      "op": "null", 
      "name": "DBstage4_unit28_bn2_gamma", 
      "attrs": {
        "eps": "2e-05", 
        "fix_gamma": "False", 
        "momentum": "0.9"
      }, 
      "inputs": []
    }, 
    {
      "op": "null", 
      "name": "DBstage4_unit28_bn2_beta", 
      "attrs": {
        "eps": "2e-05", 
        "fix_gamma": "False", 
        "momentum": "0.9"
      }, 
      "inputs": []
    }, 
    {
      "op": "null", 
      "name": "DBstage4_unit28_bn2_moving_mean", 
      "attrs": {
        "__init__": "[\"zero\", {}]", 
        "eps": "2e-05", 
        "fix_gamma": "False", 
        "momentum": "0.9"
      }, 
      "inputs": []
    }, 
    {
      "op": "null", 
      "name": "DBstage4_unit28_bn2_moving_var", 
      "attrs": {
        "__init__": "[\"one\", {}]", 
        "eps": "2e-05", 
        "fix_gamma": "False", 
        "momentum": "0.9"
      }, 
      "inputs": []
    }, 
    {
      "op": "BatchNorm", 
      "name": "DBstage4_unit28_bn2", 
      "attrs": {
        "eps": "2e-05", 
        "fix_gamma": "False", 
        "momentum": "0.9"
      }, 
      "inputs": [[1358, 0, 0], [1359, 0, 0], [1360, 0, 0], [1361, 0, 1], [1362, 0, 1]]
    }, 
    {
      "op": "Activation", 
      "name": "DBstage4_unit28_relu2", 
      "attrs": {"act_type": "relu"}, 
      "inputs": [[1363, 0, 0]]
    }, 
    {
      "op": "null", 
      "name": "DBstage4_unit28_conv2_weight", 
      "attrs": {
        "kernel": "(3, 3)", 
        "no_bias": "True", 
        "num_filter": "32", 
        "pad": "(1, 1)", 
        "stride": "(1, 1)", 
        "workspace": "512"
      }, 
      "inputs": []
    }, 
    {
      "op": "Convolution", 
      "name": "DBstage4_unit28_conv2", 
      "attrs": {
        "kernel": "(3, 3)", 
        "no_bias": "True", 
        "num_filter": "32", 
        "pad": "(1, 1)", 
        "stride": "(1, 1)", 
        "workspace": "512"
      }, 
      "inputs": [[1364, 0, 0], [1365, 0, 0]]
    }, 
    {
      "op": "Concat", 
      "name": "DBstage4_concat28", 
      "attrs": {"num_args": "2"}, 
      "inputs": [[1350, 0, 0], [1366, 0, 0]]
    }, 
    {
      "op": "null", 
      "name": "DBstage4_unit29_bn1_gamma", 
      "attrs": {
        "eps": "2e-05", 
        "fix_gamma": "False", 
        "momentum": "0.9"
      }, 
      "inputs": []
    }, 
    {
      "op": "null", 
      "name": "DBstage4_unit29_bn1_beta", 
      "attrs": {
        "eps": "2e-05", 
        "fix_gamma": "False", 
        "momentum": "0.9"
      }, 
      "inputs": []
    }, 
    {
      "op": "null", 
      "name": "DBstage4_unit29_bn1_moving_mean", 
      "attrs": {
        "__init__": "[\"zero\", {}]", 
        "eps": "2e-05", 
        "fix_gamma": "False", 
        "momentum": "0.9"
      }, 
      "inputs": []
    }, 
    {
      "op": "null", 
      "name": "DBstage4_unit29_bn1_moving_var", 
      "attrs": {
        "__init__": "[\"one\", {}]", 
        "eps": "2e-05", 
        "fix_gamma": "False", 
        "momentum": "0.9"
      }, 
      "inputs": []
    }, 
    {
      "op": "BatchNorm", 
      "name": "DBstage4_unit29_bn1", 
      "attrs": {
        "eps": "2e-05", 
        "fix_gamma": "False", 
        "momentum": "0.9"
      }, 
      "inputs": [[1367, 0, 0], [1368, 0, 0], [1369, 0, 0], [1370, 0, 1], [1371, 0, 1]]
    }, 
    {
      "op": "Activation", 
      "name": "DBstage4_unit29_relu1", 
      "attrs": {"act_type": "relu"}, 
      "inputs": [[1372, 0, 0]]
    }, 
    {
      "op": "null", 
      "name": "DBstage4_unit29_conv1_weight", 
      "attrs": {
        "kernel": "(1, 1)", 
        "no_bias": "True", 
        "num_filter": "128", 
        "pad": "(0, 0)", 
        "stride": "(1, 1)", 
        "workspace": "512"
      }, 
      "inputs": []
    }, 
    {
      "op": "Convolution", 
      "name": "DBstage4_unit29_conv1", 
      "attrs": {
        "kernel": "(1, 1)", 
        "no_bias": "True", 
        "num_filter": "128", 
        "pad": "(0, 0)", 
        "stride": "(1, 1)", 
        "workspace": "512"
      }, 
      "inputs": [[1373, 0, 0], [1374, 0, 0]]
    }, 
    {
      "op": "null", 
      "name": "DBstage4_unit29_bn2_gamma", 
      "attrs": {
        "eps": "2e-05", 
        "fix_gamma": "False", 
        "momentum": "0.9"
      }, 
      "inputs": []
    }, 
    {
      "op": "null", 
      "name": "DBstage4_unit29_bn2_beta", 
      "attrs": {
        "eps": "2e-05", 
        "fix_gamma": "False", 
        "momentum": "0.9"
      }, 
      "inputs": []
    }, 
    {
      "op": "null", 
      "name": "DBstage4_unit29_bn2_moving_mean", 
      "attrs": {
        "__init__": "[\"zero\", {}]", 
        "eps": "2e-05", 
        "fix_gamma": "False", 
        "momentum": "0.9"
      }, 
      "inputs": []
    }, 
    {
      "op": "null", 
      "name": "DBstage4_unit29_bn2_moving_var", 
      "attrs": {
        "__init__": "[\"one\", {}]", 
        "eps": "2e-05", 
        "fix_gamma": "False", 
        "momentum": "0.9"
      }, 
      "inputs": []
    }, 
    {
      "op": "BatchNorm", 
      "name": "DBstage4_unit29_bn2", 
      "attrs": {
        "eps": "2e-05", 
        "fix_gamma": "False", 
        "momentum": "0.9"
      }, 
      "inputs": [[1375, 0, 0], [1376, 0, 0], [1377, 0, 0], [1378, 0, 1], [1379, 0, 1]]
    }, 
    {
      "op": "Activation", 
      "name": "DBstage4_unit29_relu2", 
      "attrs": {"act_type": "relu"}, 
      "inputs": [[1380, 0, 0]]
    }, 
    {
      "op": "null", 
      "name": "DBstage4_unit29_conv2_weight", 
      "attrs": {
        "kernel": "(3, 3)", 
        "no_bias": "True", 
        "num_filter": "32", 
        "pad": "(1, 1)", 
        "stride": "(1, 1)", 
        "workspace": "512"
      }, 
      "inputs": []
    }, 
    {
      "op": "Convolution", 
      "name": "DBstage4_unit29_conv2", 
      "attrs": {
        "kernel": "(3, 3)", 
        "no_bias": "True", 
        "num_filter": "32", 
        "pad": "(1, 1)", 
        "stride": "(1, 1)", 
        "workspace": "512"
      }, 
      "inputs": [[1381, 0, 0], [1382, 0, 0]]
    }, 
    {
      "op": "Concat", 
      "name": "DBstage4_concat29", 
      "attrs": {"num_args": "2"}, 
      "inputs": [[1367, 0, 0], [1383, 0, 0]]
    }, 
    {
      "op": "null", 
      "name": "DBstage4_unit30_bn1_gamma", 
      "attrs": {
        "eps": "2e-05", 
        "fix_gamma": "False", 
        "momentum": "0.9"
      }, 
      "inputs": []
    }, 
    {
      "op": "null", 
      "name": "DBstage4_unit30_bn1_beta", 
      "attrs": {
        "eps": "2e-05", 
        "fix_gamma": "False", 
        "momentum": "0.9"
      }, 
      "inputs": []
    }, 
    {
      "op": "null", 
      "name": "DBstage4_unit30_bn1_moving_mean", 
      "attrs": {
        "__init__": "[\"zero\", {}]", 
        "eps": "2e-05", 
        "fix_gamma": "False", 
        "momentum": "0.9"
      }, 
      "inputs": []
    }, 
    {
      "op": "null", 
      "name": "DBstage4_unit30_bn1_moving_var", 
      "attrs": {
        "__init__": "[\"one\", {}]", 
        "eps": "2e-05", 
        "fix_gamma": "False", 
        "momentum": "0.9"
      }, 
      "inputs": []
    }, 
    {
      "op": "BatchNorm", 
      "name": "DBstage4_unit30_bn1", 
      "attrs": {
        "eps": "2e-05", 
        "fix_gamma": "False", 
        "momentum": "0.9"
      }, 
      "inputs": [[1384, 0, 0], [1385, 0, 0], [1386, 0, 0], [1387, 0, 1], [1388, 0, 1]]
    }, 
    {
      "op": "Activation", 
      "name": "DBstage4_unit30_relu1", 
      "attrs": {"act_type": "relu"}, 
      "inputs": [[1389, 0, 0]]
    }, 
    {
      "op": "null", 
      "name": "DBstage4_unit30_conv1_weight", 
      "attrs": {
        "kernel": "(1, 1)", 
        "no_bias": "True", 
        "num_filter": "128", 
        "pad": "(0, 0)", 
        "stride": "(1, 1)", 
        "workspace": "512"
      }, 
      "inputs": []
    }, 
    {
      "op": "Convolution", 
      "name": "DBstage4_unit30_conv1", 
      "attrs": {
        "kernel": "(1, 1)", 
        "no_bias": "True", 
        "num_filter": "128", 
        "pad": "(0, 0)", 
        "stride": "(1, 1)", 
        "workspace": "512"
      }, 
      "inputs": [[1390, 0, 0], [1391, 0, 0]]
    }, 
    {
      "op": "null", 
      "name": "DBstage4_unit30_bn2_gamma", 
      "attrs": {
        "eps": "2e-05", 
        "fix_gamma": "False", 
        "momentum": "0.9"
      }, 
      "inputs": []
    }, 
    {
      "op": "null", 
      "name": "DBstage4_unit30_bn2_beta", 
      "attrs": {
        "eps": "2e-05", 
        "fix_gamma": "False", 
        "momentum": "0.9"
      }, 
      "inputs": []
    }, 
    {
      "op": "null", 
      "name": "DBstage4_unit30_bn2_moving_mean", 
      "attrs": {
        "__init__": "[\"zero\", {}]", 
        "eps": "2e-05", 
        "fix_gamma": "False", 
        "momentum": "0.9"
      }, 
      "inputs": []
    }, 
    {
      "op": "null", 
      "name": "DBstage4_unit30_bn2_moving_var", 
      "attrs": {
        "__init__": "[\"one\", {}]", 
        "eps": "2e-05", 
        "fix_gamma": "False", 
        "momentum": "0.9"
      }, 
      "inputs": []
    }, 
    {
      "op": "BatchNorm", 
      "name": "DBstage4_unit30_bn2", 
      "attrs": {
        "eps": "2e-05", 
        "fix_gamma": "False", 
        "momentum": "0.9"
      }, 
      "inputs": [[1392, 0, 0], [1393, 0, 0], [1394, 0, 0], [1395, 0, 1], [1396, 0, 1]]
    }, 
    {
      "op": "Activation", 
      "name": "DBstage4_unit30_relu2", 
      "attrs": {"act_type": "relu"}, 
      "inputs": [[1397, 0, 0]]
    }, 
    {
      "op": "null", 
      "name": "DBstage4_unit30_conv2_weight", 
      "attrs": {
        "kernel": "(3, 3)", 
        "no_bias": "True", 
        "num_filter": "32", 
        "pad": "(1, 1)", 
        "stride": "(1, 1)", 
        "workspace": "512"
      }, 
      "inputs": []
    }, 
    {
      "op": "Convolution", 
      "name": "DBstage4_unit30_conv2", 
      "attrs": {
        "kernel": "(3, 3)", 
        "no_bias": "True", 
        "num_filter": "32", 
        "pad": "(1, 1)", 
        "stride": "(1, 1)", 
        "workspace": "512"
      }, 
      "inputs": [[1398, 0, 0], [1399, 0, 0]]
    }, 
    {
      "op": "Concat", 
      "name": "DBstage4_concat30", 
      "attrs": {"num_args": "2"}, 
      "inputs": [[1384, 0, 0], [1400, 0, 0]]
    }, 
    {
      "op": "null", 
      "name": "DBstage4_unit31_bn1_gamma", 
      "attrs": {
        "eps": "2e-05", 
        "fix_gamma": "False", 
        "momentum": "0.9"
      }, 
      "inputs": []
    }, 
    {
      "op": "null", 
      "name": "DBstage4_unit31_bn1_beta", 
      "attrs": {
        "eps": "2e-05", 
        "fix_gamma": "False", 
        "momentum": "0.9"
      }, 
      "inputs": []
    }, 
    {
      "op": "null", 
      "name": "DBstage4_unit31_bn1_moving_mean", 
      "attrs": {
        "__init__": "[\"zero\", {}]", 
        "eps": "2e-05", 
        "fix_gamma": "False", 
        "momentum": "0.9"
      }, 
      "inputs": []
    }, 
    {
      "op": "null", 
      "name": "DBstage4_unit31_bn1_moving_var", 
      "attrs": {
        "__init__": "[\"one\", {}]", 
        "eps": "2e-05", 
        "fix_gamma": "False", 
        "momentum": "0.9"
      }, 
      "inputs": []
    }, 
    {
      "op": "BatchNorm", 
      "name": "DBstage4_unit31_bn1", 
      "attrs": {
        "eps": "2e-05", 
        "fix_gamma": "False", 
        "momentum": "0.9"
      }, 
      "inputs": [[1401, 0, 0], [1402, 0, 0], [1403, 0, 0], [1404, 0, 1], [1405, 0, 1]]
    }, 
    {
      "op": "Activation", 
      "name": "DBstage4_unit31_relu1", 
      "attrs": {"act_type": "relu"}, 
      "inputs": [[1406, 0, 0]]
    }, 
    {
      "op": "null", 
      "name": "DBstage4_unit31_conv1_weight", 
      "attrs": {
        "kernel": "(1, 1)", 
        "no_bias": "True", 
        "num_filter": "128", 
        "pad": "(0, 0)", 
        "stride": "(1, 1)", 
        "workspace": "512"
      }, 
      "inputs": []
    }, 
    {
      "op": "Convolution", 
      "name": "DBstage4_unit31_conv1", 
      "attrs": {
        "kernel": "(1, 1)", 
        "no_bias": "True", 
        "num_filter": "128", 
        "pad": "(0, 0)", 
        "stride": "(1, 1)", 
        "workspace": "512"
      }, 
      "inputs": [[1407, 0, 0], [1408, 0, 0]]
    }, 
    {
      "op": "null", 
      "name": "DBstage4_unit31_bn2_gamma", 
      "attrs": {
        "eps": "2e-05", 
        "fix_gamma": "False", 
        "momentum": "0.9"
      }, 
      "inputs": []
    }, 
    {
      "op": "null", 
      "name": "DBstage4_unit31_bn2_beta", 
      "attrs": {
        "eps": "2e-05", 
        "fix_gamma": "False", 
        "momentum": "0.9"
      }, 
      "inputs": []
    }, 
    {
      "op": "null", 
      "name": "DBstage4_unit31_bn2_moving_mean", 
      "attrs": {
        "__init__": "[\"zero\", {}]", 
        "eps": "2e-05", 
        "fix_gamma": "False", 
        "momentum": "0.9"
      }, 
      "inputs": []
    }, 
    {
      "op": "null", 
      "name": "DBstage4_unit31_bn2_moving_var", 
      "attrs": {
        "__init__": "[\"one\", {}]", 
        "eps": "2e-05", 
        "fix_gamma": "False", 
        "momentum": "0.9"
      }, 
      "inputs": []
    }, 
    {
      "op": "BatchNorm", 
      "name": "DBstage4_unit31_bn2", 
      "attrs": {
        "eps": "2e-05", 
        "fix_gamma": "False", 
        "momentum": "0.9"
      }, 
      "inputs": [[1409, 0, 0], [1410, 0, 0], [1411, 0, 0], [1412, 0, 1], [1413, 0, 1]]
    }, 
    {
      "op": "Activation", 
      "name": "DBstage4_unit31_relu2", 
      "attrs": {"act_type": "relu"}, 
      "inputs": [[1414, 0, 0]]
    }, 
    {
      "op": "null", 
      "name": "DBstage4_unit31_conv2_weight", 
      "attrs": {
        "kernel": "(3, 3)", 
        "no_bias": "True", 
        "num_filter": "32", 
        "pad": "(1, 1)", 
        "stride": "(1, 1)", 
        "workspace": "512"
      }, 
      "inputs": []
    }, 
    {
      "op": "Convolution", 
      "name": "DBstage4_unit31_conv2", 
      "attrs": {
        "kernel": "(3, 3)", 
        "no_bias": "True", 
        "num_filter": "32", 
        "pad": "(1, 1)", 
        "stride": "(1, 1)", 
        "workspace": "512"
      }, 
      "inputs": [[1415, 0, 0], [1416, 0, 0]]
    }, 
    {
      "op": "Concat", 
      "name": "DBstage4_concat31", 
      "attrs": {"num_args": "2"}, 
      "inputs": [[1401, 0, 0], [1417, 0, 0]]
    }, 
    {
      "op": "null", 
      "name": "DBstage4_unit32_bn1_gamma", 
      "attrs": {
        "eps": "2e-05", 
        "fix_gamma": "False", 
        "momentum": "0.9"
      }, 
      "inputs": []
    }, 
    {
      "op": "null", 
      "name": "DBstage4_unit32_bn1_beta", 
      "attrs": {
        "eps": "2e-05", 
        "fix_gamma": "False", 
        "momentum": "0.9"
      }, 
      "inputs": []
    }, 
    {
      "op": "null", 
      "name": "DBstage4_unit32_bn1_moving_mean", 
      "attrs": {
        "__init__": "[\"zero\", {}]", 
        "eps": "2e-05", 
        "fix_gamma": "False", 
        "momentum": "0.9"
      }, 
      "inputs": []
    }, 
    {
      "op": "null", 
      "name": "DBstage4_unit32_bn1_moving_var", 
      "attrs": {
        "__init__": "[\"one\", {}]", 
        "eps": "2e-05", 
        "fix_gamma": "False", 
        "momentum": "0.9"
      }, 
      "inputs": []
    }, 
    {
      "op": "BatchNorm", 
      "name": "DBstage4_unit32_bn1", 
      "attrs": {
        "eps": "2e-05", 
        "fix_gamma": "False", 
        "momentum": "0.9"
      }, 
      "inputs": [[1418, 0, 0], [1419, 0, 0], [1420, 0, 0], [1421, 0, 1], [1422, 0, 1]]
    }, 
    {
      "op": "Activation", 
      "name": "DBstage4_unit32_relu1", 
      "attrs": {"act_type": "relu"}, 
      "inputs": [[1423, 0, 0]]
    }, 
    {
      "op": "null", 
      "name": "DBstage4_unit32_conv1_weight", 
      "attrs": {
        "kernel": "(1, 1)", 
        "no_bias": "True", 
        "num_filter": "128", 
        "pad": "(0, 0)", 
        "stride": "(1, 1)", 
        "workspace": "512"
      }, 
      "inputs": []
    }, 
    {
      "op": "Convolution", 
      "name": "DBstage4_unit32_conv1", 
      "attrs": {
        "kernel": "(1, 1)", 
        "no_bias": "True", 
        "num_filter": "128", 
        "pad": "(0, 0)", 
        "stride": "(1, 1)", 
        "workspace": "512"
      }, 
      "inputs": [[1424, 0, 0], [1425, 0, 0]]
    }, 
    {
      "op": "null", 
      "name": "DBstage4_unit32_bn2_gamma", 
      "attrs": {
        "eps": "2e-05", 
        "fix_gamma": "False", 
        "momentum": "0.9"
      }, 
      "inputs": []
    }, 
    {
      "op": "null", 
      "name": "DBstage4_unit32_bn2_beta", 
      "attrs": {
        "eps": "2e-05", 
        "fix_gamma": "False", 
        "momentum": "0.9"
      }, 
      "inputs": []
    }, 
    {
      "op": "null", 
      "name": "DBstage4_unit32_bn2_moving_mean", 
      "attrs": {
        "__init__": "[\"zero\", {}]", 
        "eps": "2e-05", 
        "fix_gamma": "False", 
        "momentum": "0.9"
      }, 
      "inputs": []
    }, 
    {
      "op": "null", 
      "name": "DBstage4_unit32_bn2_moving_var", 
      "attrs": {
        "__init__": "[\"one\", {}]", 
        "eps": "2e-05", 
        "fix_gamma": "False", 
        "momentum": "0.9"
      }, 
      "inputs": []
    }, 
    {
      "op": "BatchNorm", 
      "name": "DBstage4_unit32_bn2", 
      "attrs": {
        "eps": "2e-05", 
        "fix_gamma": "False", 
        "momentum": "0.9"
      }, 
      "inputs": [[1426, 0, 0], [1427, 0, 0], [1428, 0, 0], [1429, 0, 1], [1430, 0, 1]]
    }, 
    {
      "op": "Activation", 
      "name": "DBstage4_unit32_relu2", 
      "attrs": {"act_type": "relu"}, 
      "inputs": [[1431, 0, 0]]
    }, 
    {
      "op": "null", 
      "name": "DBstage4_unit32_conv2_weight", 
      "attrs": {
        "kernel": "(3, 3)", 
        "no_bias": "True", 
        "num_filter": "32", 
        "pad": "(1, 1)", 
        "stride": "(1, 1)", 
        "workspace": "512"
      }, 
      "inputs": []
    }, 
    {
      "op": "Convolution", 
      "name": "DBstage4_unit32_conv2", 
      "attrs": {
        "kernel": "(3, 3)", 
        "no_bias": "True", 
        "num_filter": "32", 
        "pad": "(1, 1)", 
        "stride": "(1, 1)", 
        "workspace": "512"
      }, 
      "inputs": [[1432, 0, 0], [1433, 0, 0]]
    }, 
    {
      "op": "Concat", 
      "name": "DBstage4_concat32", 
      "attrs": {"num_args": "2"}, 
      "inputs": [[1418, 0, 0], [1434, 0, 0]]
    }, 
    {
      "op": "null", 
      "name": "bn1_gamma", 
      "attrs": {
        "eps": "2e-05", 
        "fix_gamma": "False", 
        "momentum": "0.9"
      }, 
      "inputs": []
    }, 
    {
      "op": "null", 
      "name": "bn1_beta", 
      "attrs": {
        "eps": "2e-05", 
        "fix_gamma": "False", 
        "momentum": "0.9"
      }, 
      "inputs": []
    }, 
    {
      "op": "null", 
      "name": "bn1_moving_mean", 
      "attrs": {
        "__init__": "[\"zero\", {}]", 
        "eps": "2e-05", 
        "fix_gamma": "False", 
        "momentum": "0.9"
      }, 
      "inputs": []
    }, 
    {
      "op": "null", 
      "name": "bn1_moving_var", 
      "attrs": {
        "__init__": "[\"one\", {}]", 
        "eps": "2e-05", 
        "fix_gamma": "False", 
        "momentum": "0.9"
      }, 
      "inputs": []
    }, 
    {
      "op": "BatchNorm", 
      "name": "bn1", 
      "attrs": {
        "eps": "2e-05", 
        "fix_gamma": "False", 
        "momentum": "0.9"
      }, 
      "inputs": [[1435, 0, 0], [1436, 0, 0], [1437, 0, 0], [1438, 0, 1], [1439, 0, 1]]
    }, 
    {
      "op": "Activation", 
      "name": "relu1", 
      "attrs": {"act_type": "relu"}, 
      "inputs": [[1440, 0, 0]]
    }, 
    {
      "op": "Pooling", 
      "name": "pool1", 
      "attrs": {
        "global_pool": "True", 
        "kernel": "(7, 7)", 
        "pool_type": "avg"
      }, 
      "inputs": [[1441, 0, 0]]
    }, 
    {
      "op": "Flatten", 
      "name": "flatten0", 
      "inputs": [[1442, 0, 0]]
    }, 
    {
      "op": "null", 
      "name": "fc1_weight", 
      "attrs": {"num_hidden": "15"}, 
      "inputs": []
    }, 
    {
      "op": "null", 
      "name": "fc1_bias", 
      "attrs": {"num_hidden": "15"}, 
      "inputs": []
    }, 
    {
      "op": "FullyConnected", 
      "name": "fc1", 
      "attrs": {"num_hidden": "15"}, 
      "inputs": [[1443, 0, 0], [1444, 0, 0], [1445, 0, 0]]
    }, 
    {
      "op": "null", 
      "name": "softmax_label", 
      "inputs": []
    }, 
    {
      "op": "SoftmaxOutput", 
      "name": "softmax", 
      "inputs": [[1446, 0, 0], [1447, 0, 0]]
    }
  ], 
  "arg_nodes": [
    0, 
    1, 
    2, 
    3, 
    4, 
    6, 
    8, 
    9, 
    10, 
    11, 
    15, 
    16, 
    17, 
    18, 
    21, 
    23, 
    24, 
    25, 
    26, 
    29, 
    32, 
    33, 
    34, 
    35, 
    38, 
    40, 
    41, 
    42, 
    43, 
    46, 
    49, 
    50, 
    51, 
    52, 
    55, 
    57, 
    58, 
    59, 
    60, 
    63, 
    66, 
    67, 
    68, 
    69, 
    72, 
    74, 
    75, 
    76, 
    77, 
    80, 
    83, 
    84, 
    85, 
    86, 
    89, 
    91, 
    92, 
    93, 
    94, 
    97, 
    100, 
    101, 
    102, 
    103, 
    106, 
    108, 
    109, 
    110, 
    111, 
    114, 
    117, 
    118, 
    119, 
    120, 
    123, 
    126, 
    127, 
    128, 
    129, 
    132, 
    134, 
    135, 
    136, 
    137, 
    140, 
    143, 
    144, 
    145, 
    146, 
    149, 
    151, 
    152, 
    153, 
    154, 
    157, 
    160, 
    161, 
    162, 
    163, 
    166, 
    168, 
    169, 
    170, 
    171, 
    174, 
    177, 
    178, 
    179, 
    180, 
    183, 
    185, 
    186, 
    187, 
    188, 
    191, 
    194, 
    195, 
    196, 
    197, 
    200, 
    202, 
    203, 
    204, 
    205, 
    208, 
    211, 
    212, 
    213, 
    214, 
    217, 
    219, 
    220, 
    221, 
    222, 
    225, 
    228, 
    229, 
    230, 
    231, 
    234, 
    236, 
    237, 
    238, 
    239, 
    242, 
    245, 
    246, 
    247, 
    248, 
    251, 
    253, 
    254, 
    255, 
    256, 
    259, 
    262, 
    263, 
    264, 
    265, 
    268, 
    270, 
    271, 
    272, 
    273, 
    276, 
    279, 
    280, 
    281, 
    282, 
    285, 
    287, 
    288, 
    289, 
    290, 
    293, 
    296, 
    297, 
    298, 
    299, 
    302, 
    304, 
    305, 
    306, 
    307, 
    310, 
    313, 
    314, 
    315, 
    316, 
    319, 
    321, 
    322, 
    323, 
    324, 
    327, 
    330, 
    331, 
    332, 
    333, 
    336, 
    339, 
    340, 
    341, 
    342, 
    345, 
    347, 
    348, 
    349, 
    350, 
    353, 
    356, 
    357, 
    358, 
    359, 
    362, 
    364, 
    365, 
    366, 
    367, 
    370, 
    373, 
    374, 
    375, 
    376, 
    379, 
    381, 
    382, 
    383, 
    384, 
    387, 
    390, 
    391, 
    392, 
    393, 
    396, 
    398, 
    399, 
    400, 
    401, 
    404, 
    407, 
    408, 
    409, 
    410, 
    413, 
    415, 
    416, 
    417, 
    418, 
    421, 
    424, 
    425, 
    426, 
    427, 
    430, 
    432, 
    433, 
    434, 
    435, 
    438, 
    441, 
    442, 
    443, 
    444, 
    447, 
    449, 
    450, 
    451, 
    452, 
    455, 
    458, 
    459, 
    460, 
    461, 
    464, 
    466, 
    467, 
    468, 
    469, 
    472, 
    475, 
    476, 
    477, 
    478, 
    481, 
    483, 
    484, 
    485, 
    486, 
    489, 
    492, 
    493, 
    494, 
    495, 
    498, 
    500, 
    501, 
    502, 
    503, 
    506, 
    509, 
    510, 
    511, 
    512, 
    515, 
    517, 
    518, 
    519, 
    520, 
    523, 
    526, 
    527, 
    528, 
    529, 
    532, 
    534, 
    535, 
    536, 
    537, 
    540, 
    543, 
    544, 
    545, 
    546, 
    549, 
    551, 
    552, 
    553, 
    554, 
    557, 
    560, 
    561, 
    562, 
    563, 
    566, 
    568, 
    569, 
    570, 
    571, 
    574, 
    577, 
    578, 
    579, 
    580, 
    583, 
    585, 
    586, 
    587, 
    588, 
    591, 
    594, 
    595, 
    596, 
    597, 
    600, 
    602, 
    603, 
    604, 
    605, 
    608, 
    611, 
    612, 
    613, 
    614, 
    617, 
    619, 
    620, 
    621, 
    622, 
    625, 
    628, 
    629, 
    630, 
    631, 
    634, 
    636, 
    637, 
    638, 
    639, 
    642, 
    645, 
    646, 
    647, 
    648, 
    651, 
    653, 
    654, 
    655, 
    656, 
    659, 
    662, 
    663, 
    664, 
    665, 
    668, 
    670, 
    671, 
    672, 
    673, 
    676, 
    679, 
    680, 
    681, 
    682, 
    685, 
    687, 
    688, 
    689, 
    690, 
    693, 
    696, 
    697, 
    698, 
    699, 
    702, 
    704, 
    705, 
    706, 
    707, 
    710, 
    713, 
    714, 
    715, 
    716, 
    719, 
    721, 
    722, 
    723, 
    724, 
    727, 
    730, 
    731, 
    732, 
    733, 
    736, 
    738, 
    739, 
    740, 
    741, 
    744, 
    747, 
    748, 
    749, 
    750, 
    753, 
    755, 
    756, 
    757, 
    758, 
    761, 
    764, 
    765, 
    766, 
    767, 
    770, 
    772, 
    773, 
    774, 
    775, 
    778, 
    781, 
    782, 
    783, 
    784, 
    787, 
    789, 
    790, 
    791, 
    792, 
    795, 
    798, 
    799, 
    800, 
    801, 
    804, 
    806, 
    807, 
    808, 
    809, 
    812, 
    815, 
    816, 
    817, 
    818, 
    821, 
    823, 
    824, 
    825, 
    826, 
    829, 
    832, 
    833, 
    834, 
    835, 
    838, 
    840, 
    841, 
    842, 
    843, 
    846, 
    849, 
    850, 
    851, 
    852, 
    855, 
    857, 
    858, 
    859, 
    860, 
    863, 
    866, 
    867, 
    868, 
    869, 
    872, 
    874, 
    875, 
    876, 
    877, 
    880, 
    883, 
    884, 
    885, 
    886, 
    889, 
    892, 
    893, 
    894, 
    895, 
    898, 
    900, 
    901, 
    902, 
    903, 
    906, 
    909, 
    910, 
    911, 
    912, 
    915, 
    917, 
    918, 
    919, 
    920, 
    923, 
    926, 
    927, 
    928, 
    929, 
    932, 
    934, 
    935, 
    936, 
    937, 
    940, 
    943, 
    944, 
    945, 
    946, 
    949, 
    951, 
    952, 
    953, 
    954, 
    957, 
    960, 
    961, 
    962, 
    963, 
    966, 
    968, 
    969, 
    970, 
    971, 
    974, 
    977, 
    978, 
    979, 
    980, 
    983, 
    985, 
    986, 
    987, 
    988, 
    991, 
    994, 
    995, 
    996, 
    997, 
    1000, 
    1002, 
    1003, 
    1004, 
    1005, 
    1008, 
    1011, 
    1012, 
    1013, 
    1014, 
    1017, 
    1019, 
    1020, 
    1021, 
    1022, 
    1025, 
    1028, 
    1029, 
    1030, 
    1031, 
    1034, 
    1036, 
    1037, 
    1038, 
    1039, 
    1042, 
    1045, 
    1046, 
    1047, 
    1048, 
    1051, 
    1053, 
    1054, 
    1055, 
    1056, 
    1059, 
    1062, 
    1063, 
    1064, 
    1065, 
    1068, 
    1070, 
    1071, 
    1072, 
    1073, 
    1076, 
    1079, 
    1080, 
    1081, 
    1082, 
    1085, 
    1087, 
    1088, 
    1089, 
    1090, 
    1093, 
    1096, 
    1097, 
    1098, 
    1099, 
    1102, 
    1104, 
    1105, 
    1106, 
    1107, 
    1110, 
    1113, 
    1114, 
    1115, 
    1116, 
    1119, 
    1121, 
    1122, 
    1123, 
    1124, 
    1127, 
    1130, 
    1131, 
    1132, 
    1133, 
    1136, 
    1138, 
    1139, 
    1140, 
    1141, 
    1144, 
    1147, 
    1148, 
    1149, 
    1150, 
    1153, 
    1155, 
    1156, 
    1157, 
    1158, 
    1161, 
    1164, 
    1165, 
    1166, 
    1167, 
    1170, 
    1172, 
    1173, 
    1174, 
    1175, 
    1178, 
    1181, 
    1182, 
    1183, 
    1184, 
    1187, 
    1189, 
    1190, 
    1191, 
    1192, 
    1195, 
    1198, 
    1199, 
    1200, 
    1201, 
    1204, 
    1206, 
    1207, 
    1208, 
    1209, 
    1212, 
    1215, 
    1216, 
    1217, 
    1218, 
    1221, 
    1223, 
    1224, 
    1225, 
    1226, 
    1229, 
    1232, 
    1233, 
    1234, 
    1235, 
    1238, 
    1240, 
    1241, 
    1242, 
    1243, 
    1246, 
    1249, 
    1250, 
    1251, 
    1252, 
    1255, 
    1257, 
    1258, 
    1259, 
    1260, 
    1263, 
    1266, 
    1267, 
    1268, 
    1269, 
    1272, 
    1274, 
    1275, 
    1276, 
    1277, 
    1280, 
    1283, 
    1284, 
    1285, 
    1286, 
    1289, 
    1291, 
    1292, 
    1293, 
    1294, 
    1297, 
    1300, 
    1301, 
    1302, 
    1303, 
    1306, 
    1308, 
    1309, 
    1310, 
    1311, 
    1314, 
    1317, 
    1318, 
    1319, 
    1320, 
    1323, 
    1325, 
    1326, 
    1327, 
    1328, 
    1331, 
    1334, 
    1335, 
    1336, 
    1337, 
    1340, 
    1342, 
    1343, 
    1344, 
    1345, 
    1348, 
    1351, 
    1352, 
    1353, 
    1354, 
    1357, 
    1359, 
    1360, 
    1361, 
    1362, 
    1365, 
    1368, 
    1369, 
    1370, 
    1371, 
    1374, 
    1376, 
    1377, 
    1378, 
    1379, 
    1382, 
    1385, 
    1386, 
    1387, 
    1388, 
    1391, 
    1393, 
    1394, 
    1395, 
    1396, 
    1399, 
    1402, 
    1403, 
    1404, 
    1405, 
    1408, 
    1410, 
    1411, 
    1412, 
    1413, 
    1416, 
    1419, 
    1420, 
    1421, 
    1422, 
    1425, 
    1427, 
    1428, 
    1429, 
    1430, 
    1433, 
    1436, 
    1437, 
    1438, 
    1439, 
    1444, 
    1445, 
    1447
  ], 
  "node_row_ptr": [
    0, 
    1, 
    2, 
    3, 
    4, 
    5, 
    8, 
    9, 
    10, 
    11, 
    12, 
    13, 
    14, 
    17, 
    18, 
    19, 
    20, 
    21, 
    22, 
    23, 
    26, 
    27, 
    28, 
    29, 
    30, 
    31, 
    32, 
    33, 
    36, 
    37, 
    38, 
    39, 
    40, 
    41, 
    42, 
    43, 
    44, 
    47, 
    48, 
    49, 
    50, 
    51, 
    52, 
    53, 
    54, 
    57, 
    58, 
    59, 
    60, 
    61, 
    62, 
    63, 
    64, 
    65, 
    68, 
    69, 
    70, 
    71, 
    72, 
    73, 
    74, 
    75, 
    78, 
    79, 
    80, 
    81, 
    82, 
    83, 
    84, 
    85, 
    86, 
    89, 
    90, 
    91, 
    92, 
    93, 
    94, 
    95, 
    96, 
    99, 
    100, 
    101, 
    102, 
    103, 
    104, 
    105, 
    106, 
    107, 
    110, 
    111, 
    112, 
    113, 
    114, 
    115, 
    116, 
    117, 
    120, 
    121, 
    122, 
    123, 
    124, 
    125, 
    126, 
    127, 
    128, 
    131, 
    132, 
    133, 
    134, 
    135, 
    136, 
    137, 
    138, 
    141, 
    142, 
    143, 
    144, 
    145, 
    146, 
    147, 
    148, 
    149, 
    152, 
    153, 
    154, 
    155, 
    156, 
    157, 
    158, 
    159, 
    160, 
    163, 
    164, 
    165, 
    166, 
    167, 
    168, 
    169, 
    170, 
    173, 
    174, 
    175, 
    176, 
    177, 
    178, 
    179, 
    180, 
    181, 
    184, 
    185, 
    186, 
    187, 
    188, 
    189, 
    190, 
    191, 
    194, 
    195, 
    196, 
    197, 
    198, 
    199, 
    200, 
    201, 
    202, 
    205, 
    206, 
    207, 
    208, 
    209, 
    210, 
    211, 
    212, 
    215, 
    216, 
    217, 
    218, 
    219, 
    220, 
    221, 
    222, 
    223, 
    226, 
    227, 
    228, 
    229, 
    230, 
    231, 
    232, 
    233, 
    236, 
    237, 
    238, 
    239, 
    240, 
    241, 
    242, 
    243, 
    244, 
    247, 
    248, 
    249, 
    250, 
    251, 
    252, 
    253, 
    254, 
    257, 
    258, 
    259, 
    260, 
    261, 
    262, 
    263, 
    264, 
    265, 
    268, 
    269, 
    270, 
    271, 
    272, 
    273, 
    274, 
    275, 
    278, 
    279, 
    280, 
    281, 
    282, 
    283, 
    284, 
    285, 
    286, 
    289, 
    290, 
    291, 
    292, 
    293, 
    294, 
    295, 
    296, 
    299, 
    300, 
    301, 
    302, 
    303, 
    304, 
    305, 
    306, 
    307, 
    310, 
    311, 
    312, 
    313, 
    314, 
    315, 
    316, 
    317, 
    320, 
    321, 
    322, 
    323, 
    324, 
    325, 
    326, 
    327, 
    328, 
    331, 
    332, 
    333, 
    334, 
    335, 
    336, 
    337, 
    338, 
    341, 
    342, 
    343, 
    344, 
    345, 
    346, 
    347, 
    348, 
    349, 
    352, 
    353, 
    354, 
    355, 
    356, 
    357, 
    358, 
    359, 
    362, 
    363, 
    364, 
    365, 
    366, 
    367, 
    368, 
    369, 
    370, 
    373, 
    374, 
    375, 
    376, 
    377, 
    378, 
    379, 
    380, 
    383, 
    384, 
    385, 
    386, 
    387, 
    388, 
    389, 
    390, 
    391, 
    394, 
    395, 
    396, 
    397, 
    398, 
    399, 
    400, 
    401, 
    404, 
    405, 
    406, 
    407, 
    408, 
    409, 
    410, 
    411, 
    412, 
    415, 
    416, 
    417, 
    418, 
    419, 
    420, 
    421, 
    422, 
    423, 
    426, 
    427, 
    428, 
    429, 
    430, 
    431, 
    432, 
    433, 
    436, 
    437, 
    438, 
    439, 
    440, 
    441, 
    442, 
    443, 
    444, 
    447, 
    448, 
    449, 
    450, 
    451, 
    452, 
    453, 
    454, 
    457, 
    458, 
    459, 
    460, 
    461, 
    462, 
    463, 
    464, 
    465, 
    468, 
    469, 
    470, 
    471, 
    472, 
    473, 
    474, 
    475, 
    478, 
    479, 
    480, 
    481, 
    482, 
    483, 
    484, 
    485, 
    486, 
    489, 
    490, 
    491, 
    492, 
    493, 
    494, 
    495, 
    496, 
    499, 
    500, 
    501, 
    502, 
    503, 
    504, 
    505, 
    506, 
    507, 
    510, 
    511, 
    512, 
    513, 
    514, 
    515, 
    516, 
    517, 
    520, 
    521, 
    522, 
    523, 
    524, 
    525, 
    526, 
    527, 
    528, 
    531, 
    532, 
    533, 
    534, 
    535, 
    536, 
    537, 
    538, 
    541, 
    542, 
    543, 
    544, 
    545, 
    546, 
    547, 
    548, 
    549, 
    552, 
    553, 
    554, 
    555, 
    556, 
    557, 
    558, 
    559, 
    562, 
    563, 
    564, 
    565, 
    566, 
    567, 
    568, 
    569, 
    570, 
    573, 
    574, 
    575, 
    576, 
    577, 
    578, 
    579, 
    580, 
    583, 
    584, 
    585, 
    586, 
    587, 
    588, 
    589, 
    590, 
    591, 
    594, 
    595, 
    596, 
    597, 
    598, 
    599, 
    600, 
    601, 
    604, 
    605, 
    606, 
    607, 
    608, 
    609, 
    610, 
    611, 
    612, 
    615, 
    616, 
    617, 
    618, 
    619, 
    620, 
    621, 
    622, 
    625, 
    626, 
    627, 
    628, 
    629, 
    630, 
    631, 
    632, 
    633, 
    636, 
    637, 
    638, 
    639, 
    640, 
    641, 
    642, 
    643, 
    646, 
    647, 
    648, 
    649, 
    650, 
    651, 
    652, 
    653, 
    654, 
    657, 
    658, 
    659, 
    660, 
    661, 
    662, 
    663, 
    664, 
    667, 
    668, 
    669, 
    670, 
    671, 
    672, 
    673, 
    674, 
    675, 
    678, 
    679, 
    680, 
    681, 
    682, 
    683, 
    684, 
    685, 
    688, 
    689, 
    690, 
    691, 
    692, 
    693, 
    694, 
    695, 
    696, 
    699, 
    700, 
    701, 
    702, 
    703, 
    704, 
    705, 
    706, 
    709, 
    710, 
    711, 
    712, 
    713, 
    714, 
    715, 
    716, 
    717, 
    720, 
    721, 
    722, 
    723, 
    724, 
    725, 
    726, 
    727, 
    730, 
    731, 
    732, 
    733, 
    734, 
    735, 
    736, 
    737, 
    738, 
    741, 
    742, 
    743, 
    744, 
    745, 
    746, 
    747, 
    748, 
    751, 
    752, 
    753, 
    754, 
    755, 
    756, 
    757, 
    758, 
    759, 
    762, 
    763, 
    764, 
    765, 
    766, 
    767, 
    768, 
    769, 
    772, 
    773, 
    774, 
    775, 
    776, 
    777, 
    778, 
    779, 
    780, 
    783, 
    784, 
    785, 
    786, 
    787, 
    788, 
    789, 
    790, 
    793, 
    794, 
    795, 
    796, 
    797, 
    798, 
    799, 
    800, 
    801, 
    804, 
    805, 
    806, 
    807, 
    808, 
    809, 
    810, 
    811, 
    814, 
    815, 
    816, 
    817, 
    818, 
    819, 
    820, 
    821, 
    822, 
    825, 
    826, 
    827, 
    828, 
    829, 
    830, 
    831, 
    832, 
    835, 
    836, 
    837, 
    838, 
    839, 
    840, 
    841, 
    842, 
    843, 
    846, 
    847, 
    848, 
    849, 
    850, 
    851, 
    852, 
    853, 
    856, 
    857, 
    858, 
    859, 
    860, 
    861, 
    862, 
    863, 
    864, 
    867, 
    868, 
    869, 
    870, 
    871, 
    872, 
    873, 
    874, 
    877, 
    878, 
    879, 
    880, 
    881, 
    882, 
    883, 
    884, 
    885, 
    888, 
    889, 
    890, 
    891, 
    892, 
    893, 
    894, 
    895, 
    898, 
    899, 
    900, 
    901, 
    902, 
    903, 
    904, 
    905, 
    906, 
    909, 
    910, 
    911, 
    912, 
    913, 
    914, 
    915, 
    916, 
    919, 
    920, 
    921, 
    922, 
    923, 
    924, 
    925, 
    926, 
    927, 
    930, 
    931, 
    932, 
    933, 
    934, 
    935, 
    936, 
    937, 
    940, 
    941, 
    942, 
    943, 
    944, 
    945, 
    946, 
    947, 
    948, 
    951, 
    952, 
    953, 
    954, 
    955, 
    956, 
    957, 
    958, 
    961, 
    962, 
    963, 
    964, 
    965, 
    966, 
    967, 
    968, 
    969, 
    972, 
    973, 
    974, 
    975, 
    976, 
    977, 
    978, 
    979, 
    982, 
    983, 
    984, 
    985, 
    986, 
    987, 
    988, 
    989, 
    990, 
    993, 
    994, 
    995, 
    996, 
    997, 
    998, 
    999, 
    1000, 
    1003, 
    1004, 
    1005, 
    1006, 
    1007, 
    1008, 
    1009, 
    1010, 
    1011, 
    1014, 
    1015, 
    1016, 
    1017, 
    1018, 
    1019, 
    1020, 
    1021, 
    1024, 
    1025, 
    1026, 
    1027, 
    1028, 
    1029, 
    1030, 
    1031, 
    1032, 
    1035, 
    1036, 
    1037, 
    1038, 
    1039, 
    1040, 
    1041, 
    1042, 
    1045, 
    1046, 
    1047, 
    1048, 
    1049, 
    1050, 
    1051, 
    1052, 
    1053, 
    1056, 
    1057, 
    1058, 
    1059, 
    1060, 
    1061, 
    1062, 
    1063, 
    1066, 
    1067, 
    1068, 
    1069, 
    1070, 
    1071, 
    1072, 
    1073, 
    1074, 
    1077, 
    1078, 
    1079, 
    1080, 
    1081, 
    1082, 
    1083, 
    1084, 
    1087, 
    1088, 
    1089, 
    1090, 
    1091, 
    1092, 
    1093, 
    1094, 
    1095, 
    1098, 
    1099, 
    1100, 
    1101, 
    1102, 
    1103, 
    1104, 
    1105, 
    1106, 
    1109, 
    1110, 
    1111, 
    1112, 
    1113, 
    1114, 
    1115, 
    1116, 
    1119, 
    1120, 
    1121, 
    1122, 
    1123, 
    1124, 
    1125, 
    1126, 
    1127, 
    1130, 
    1131, 
    1132, 
    1133, 
    1134, 
    1135, 
    1136, 
    1137, 
    1140, 
    1141, 
    1142, 
    1143, 
    1144, 
    1145, 
    1146, 
    1147, 
    1148, 
    1151, 
    1152, 
    1153, 
    1154, 
    1155, 
    1156, 
    1157, 
    1158, 
    1161, 
    1162, 
    1163, 
    1164, 
    1165, 
    1166, 
    1167, 
    1168, 
    1169, 
    1172, 
    1173, 
    1174, 
    1175, 
    1176, 
    1177, 
    1178, 
    1179, 
    1182, 
    1183, 
    1184, 
    1185, 
    1186, 
    1187, 
    1188, 
    1189, 
    1190, 
    1193, 
    1194, 
    1195, 
    1196, 
    1197, 
    1198, 
    1199, 
    1200, 
    1203, 
    1204, 
    1205, 
    1206, 
    1207, 
    1208, 
    1209, 
    1210, 
    1211, 
    1214, 
    1215, 
    1216, 
    1217, 
    1218, 
    1219, 
    1220, 
    1221, 
    1224, 
    1225, 
    1226, 
    1227, 
    1228, 
    1229, 
    1230, 
    1231, 
    1232, 
    1235, 
    1236, 
    1237, 
    1238, 
    1239, 
    1240, 
    1241, 
    1242, 
    1245, 
    1246, 
    1247, 
    1248, 
    1249, 
    1250, 
    1251, 
    1252, 
    1253, 
    1256, 
    1257, 
    1258, 
    1259, 
    1260, 
    1261, 
    1262, 
    1263, 
    1266, 
    1267, 
    1268, 
    1269, 
    1270, 
    1271, 
    1272, 
    1273, 
    1274, 
    1277, 
    1278, 
    1279, 
    1280, 
    1281, 
    1282, 
    1283, 
    1284, 
    1287, 
    1288, 
    1289, 
    1290, 
    1291, 
    1292, 
    1293, 
    1294, 
    1295, 
    1298, 
    1299, 
    1300, 
    1301, 
    1302, 
    1303, 
    1304, 
    1305, 
    1308, 
    1309, 
    1310, 
    1311, 
    1312, 
    1313, 
    1314, 
    1315, 
    1316, 
    1319, 
    1320, 
    1321, 
    1322, 
    1323, 
    1324, 
    1325, 
    1326, 
    1329, 
    1330, 
    1331, 
    1332, 
    1333, 
    1334, 
    1335, 
    1336, 
    1337, 
    1340, 
    1341, 
    1342, 
    1343, 
    1344, 
    1345, 
    1346, 
    1347, 
    1350, 
    1351, 
    1352, 
    1353, 
    1354, 
    1355, 
    1356, 
    1357, 
    1358, 
    1361, 
    1362, 
    1363, 
    1364, 
    1365, 
    1366, 
    1367, 
    1368, 
    1371, 
    1372, 
    1373, 
    1374, 
    1375, 
    1376, 
    1377, 
    1378, 
    1379, 
    1382, 
    1383, 
    1384, 
    1385, 
    1386, 
    1387, 
    1388, 
    1389, 
    1392, 
    1393, 
    1394, 
    1395, 
    1396, 
    1397, 
    1398, 
    1399, 
    1400, 
    1403, 
    1404, 
    1405, 
    1406, 
    1407, 
    1408, 
    1409, 
    1410, 
    1413, 
    1414, 
    1415, 
    1416, 
    1417, 
    1418, 
    1419, 
    1420, 
    1421, 
    1424, 
    1425, 
    1426, 
    1427, 
    1428, 
    1429, 
    1430, 
    1431, 
    1434, 
    1435, 
    1436, 
    1437, 
    1438, 
    1439, 
    1440, 
    1441, 
    1442, 
    1445, 
    1446, 
    1447, 
    1448, 
    1449, 
    1450, 
    1451, 
    1452, 
    1455, 
    1456, 
    1457, 
    1458, 
    1459, 
    1460, 
    1461, 
    1462, 
    1463, 
    1466, 
    1467, 
    1468, 
    1469, 
    1470, 
    1471, 
    1472, 
    1473, 
    1476, 
    1477, 
    1478, 
    1479, 
    1480, 
    1481, 
    1482, 
    1483, 
    1484, 
    1487, 
    1488, 
    1489, 
    1490, 
    1491, 
    1492, 
    1493, 
    1494, 
    1497, 
    1498, 
    1499, 
    1500, 
    1501, 
    1502, 
    1503, 
    1504, 
    1505, 
    1508, 
    1509, 
    1510, 
    1511, 
    1512, 
    1513, 
    1514, 
    1515, 
    1518, 
    1519, 
    1520, 
    1521, 
    1522, 
    1523, 
    1524, 
    1525, 
    1526, 
    1529, 
    1530, 
    1531, 
    1532, 
    1533, 
    1534, 
    1535, 
    1536, 
    1539, 
    1540, 
    1541, 
    1542, 
    1543, 
    1544, 
    1545, 
    1546, 
    1547, 
    1550, 
    1551, 
    1552, 
    1553, 
    1554, 
    1555, 
    1556, 
    1557, 
    1560, 
    1561, 
    1562, 
    1563, 
    1564, 
    1565, 
    1566, 
    1567, 
    1568, 
    1571, 
    1572, 
    1573, 
    1574, 
    1575, 
    1576, 
    1577, 
    1578, 
    1581, 
    1582, 
    1583, 
    1584, 
    1585, 
    1586, 
    1587, 
    1588, 
    1589, 
    1592, 
    1593, 
    1594, 
    1595, 
    1596, 
    1597, 
    1598, 
    1599, 
    1602, 
    1603, 
    1604, 
    1605, 
    1606, 
    1607, 
    1608, 
    1609, 
    1610, 
    1613, 
    1614, 
    1615, 
    1616, 
    1617, 
    1618, 
    1619, 
    1620, 
    1623, 
    1624, 
    1625, 
    1626, 
    1627, 
    1628, 
    1629, 
    1630, 
    1631, 
    1634, 
    1635, 
    1636, 
    1637, 
    1638, 
    1639, 
    1640, 
    1641, 
    1644, 
    1645, 
    1646, 
    1647, 
    1648, 
    1649, 
    1650, 
    1651, 
    1652, 
    1655, 
    1656, 
    1657, 
    1658, 
    1659, 
    1660, 
    1661, 
    1662, 
    1665, 
    1666, 
    1667, 
    1668, 
    1669, 
    1670, 
    1671, 
    1672, 
    1673, 
    1676, 
    1677, 
    1678, 
    1679, 
    1680, 
    1681, 
    1682, 
    1683, 
    1686, 
    1687, 
    1688, 
    1689, 
    1690, 
    1691, 
    1692, 
    1693, 
    1694, 
    1697, 
    1698, 
    1699, 
    1700, 
    1701, 
    1702, 
    1703, 
    1704, 
    1707, 
    1708, 
    1709, 
    1710, 
    1711, 
    1712, 
    1713, 
    1714, 
    1715, 
    1718, 
    1719, 
    1720, 
    1721, 
    1722, 
    1723, 
    1724, 
    1725, 
    1728, 
    1729, 
    1730, 
    1731, 
    1732, 
    1733, 
    1734, 
    1735, 
    1736, 
    1739, 
    1740, 
    1741, 
    1742, 
    1743, 
    1744, 
    1745, 
    1746, 
    1749, 
    1750, 
    1751, 
    1752, 
    1753, 
    1754, 
    1755, 
    1756, 
    1757, 
    1760, 
    1761, 
    1762, 
    1763, 
    1764, 
    1765, 
    1766, 
    1767, 
    1770, 
    1771, 
    1772, 
    1773, 
    1774, 
    1775, 
    1776, 
    1777, 
    1778, 
    1781, 
    1782, 
    1783, 
    1784, 
    1785, 
    1786, 
    1787, 
    1788, 
    1789
  ], 
  "heads": [[1448, 0, 0]], 
  "attrs": {"mxnet_version": ["int", 10000]}
}